Source/results/WeightAgent_Training/WeightAgent_Training/WeightAgent_Training-48677.onnx (onnx, 155824 bytes, 6 tensors)

network_body._body_endoder.seq_layers.0.weight f4 [128, 163]
00000000: a8fc fe3b d065 29bd 6108 84bc 1c77 2abe
00000010: ba26 723c fbbc 073e 3ed7 363d e19c 73bc
00000020: 6d7b d0bd 34b3 2f3c bf4e 05bd 4441 f0bd
00000030: f3c9 953d 35cb b83d 5c5b ae39 4202 5cbd
00000040: 5b51 2ebc c301 fe3c 442c edbd 4d0e 8bbd
00000050: 1028 e0bd f897 18bc f4a9 873d 5930 8b3d
00000060: 3fa4 abbc 646d 68bd 30fb ed3d 880f 0f3e
00000070: 7f4b 9b3c 6f57 cdbd d2e7 af3d 7b17 debb
00000080: 5c3b 97bd 642d 04be e424 85bd b0c0 18bd
00000090: 5b81 9b3d bc33 913d 0e21 94bc d433 c0bd
000000a0: eb47 87bd 59a7 0cbe 035b 4bbd 8ad5 69bd
000000b0: 9780 413e d4e9 31bd 47fc f63d 4d07 a7bc
000000c0: 81a8 a33c e46b 8a3b 1c5f 883d 5db7 193d
000000d0: ced8 973d 72a9 2abd 52ea df3d 050c 2bbd
000000e0: f1e6 2fbd d0b8 ccbc b732 d03c 534e d23d
000000f0: ab27 3ebd 6c10 95bd a5ba 5fbd 7040 843d
00000100: dbf5 d63d bb15 3abe 022b a7bd 1cfb 633d
00000110: cf72 a73c 04aa 51bd fb12 bebb 8628 eb3d
00000120: 1a56 1abd bdea 80bd c35b e93c 9ccd 5d3b
00000130: 00b4 433c 0803 fcbc eca4 c43d 9d47 14bd
00000140: 42eb 33be e365 6f3d 12f1 07bc 8846 d1bd
00000150: eda1 95bd fbb6 f5bd 04bf 933d 99c2 6cbc
00000160: 1730 f73d ad76 2d3d b963 90bc 4cd1 f7bc
00000170: 3c96 823d 60d7 b03d 1b41 c4ba 99e7 2fbd
00000180: cb69 febc c119 d2bd 54f5 b6bd 621e fdbc
00000190: e84d 88bd 15b1 00be d66b 363d 2675 d6bb
000001a0: 94ff 033d 109f 03be b8fe 9a3d b7e3 bd3c
000001b0: 0952 373c e287 1c3d 41a4 42bc e772 cc3c
000001c0: 9784 49bd 1a1f e6bd fbab bc3c 65d5 003e
000001d0: 0c51 b1bd f0d0 8cbd fc0f 2c3d 276d 883d
000001e0: 466e 6fbd e3ad a4bd e409 963d bf3d 2ebd
000001f0: 7ec2 803d db7a b5bd c978 9ebd f6a6 053d
00000200: 9b4c 12be 336c 9ebd 5789 0ebd 63f8 59bd
00000210: 6102 ed3d 9cee 763e e697 a43d cc2e b0bd
00000220: cbec e53d c1da 3f3d 5a8f 14bc 0143 ab3c
00000230: d05d f7bd 1970 043c 5c50 94bd 21c7 86bd
00000240: 6f3d 563d dd4d 163d 2dcd 1bbe d899 e43c
00000250: 3e5e 093e 1efb a53c 87dc af3c f3b6 a3bc
00000260: 7cd4 96bd 23d8 1a3c 5458 9cbd 1b04 5bbd
00000270: 769d b0bd 3fc5 603c d91e 04bc 4537 123e
00000280: 62a3 46bc 85b1 dabd 7c1b 1c3e 1fd8 a73c
00000290: 099c e83d 7fb5 543d 05f7 35bd eb1b 2d3c
000002a0: b17a 713d ae9b f6bd d2ec c13d 2bdc 08bd
000002b0: 9249 b93c d284 bebd 3107 843d e984 d03b
000002c0: e42f a53c 3189 bdbd ec0d da3c 0c14 f4bd
000002d0: 2f00 cebd 24a0 46bc 65ca 40bc a5a2 453d
000002e0: 501b c5bd 5515 c43c 17c8 cabd 3e98 e6bd
000002f0: 75da e3bc 58bd 8a3d b995 25be 046f f8b7
00000300: 67a2 d7bc 24f9 fbbc 219d 18be 5ccd d6bd
00000310: 5c00 723d 60fc d8bd 814a 2cbd 8bf4 cebd
00000320: aa6b 613c eda5 d13c 8f19 7bbd b17e 1fbe
00000330: 2759 b3bd b038 e33c 86ea 963d 76cd fabd
00000340: 129e 6dbd 3184 b4bd ce3e 833c 3d69 953d
00000350: 50c4 e23c 5b37 1e3e 1de2 d9bd 1309 4dbd
00000360: 9b66 ac3a fcc7 b0bc 6cd6 03bd d90e b33c
00000370: eaa7 3c3d c99f ec3c 57ac 903d fbcf 01bd
00000380: d70c a93c 512b 8fbd 6969 953d ae39 dbbd
00000390: a903 d43d 16b2 2dbc ade7 e2bd 0f44 053c
000003a0: 59a6 eabc c2ef 8ebd 426b 843d 5d77 dd3a
000003b0: 7858 94bd 16a6 2abe 7161 1b3e 6e67 00bd
000003c0: ab8e cb3d b2cf fd3a a8f5 ae3b 7559 b8bd
000003d0: 38ee 92bd b86d bdbd 2797 e3bc 0673 cebb
000003e0: 7bb9 3a3e 999d 9f3d e776 0f3e 4423 d1bd
000003f0: bdec 853c 68ed b2bd 08c3 dfba 2a04 743d
0.007781584 -0.04135686 -0.016117277 -0.16646999 0.014779741 0.13255684 0.044638865 -0.014868946
-0.101797916 0.010723878 -0.0325458 -0.117311984 0.073139094 0.09023134 0.00033255934 -0.05371309
-0.010639514 0.0310067 -0.115807086 -0.06789837 -0.10945141 -0.009313576 0.06624213 0.06796331
-0.020952342 -0.056744948 0.11620176 0.13970768 0.018956898 -0.10026442 0.08589138 -0.0067777014
-0.07384369 -0.1290794 -0.06501177 -0.037293136 0.07593032 0.07089946 -0.018082168 -0.093848854
-0.06605514 -0.13735713 -0.049647342 -0.057088412 0.1889671 -0.043435887 0.12059837 -0.020389223
0.01997781 0.0042242873 0.06658766 0.037528384 0.07414399 -0.041665502 0.10933365 -0.04175951
-0.042944852 -0.02499047 0.025414808 0.102688454 -0.04642455 -0.07278523 -0.054621357 0.06457603
0.10496112 -0.18172352 -0.081625 0.0556594 0.020440487 -0.05118753 -0.0058006025 0.114823386
-0.03767977 -0.06294773 0.028486138 0.0033844477 0.011944771 -0.030763164 0.09601769 -0.03620111
-0.17570212 0.058446776 -0.008297222 -0.10218531 -0.073062755 -0.119977914 0.07214168 -0.014450693
0.12069719 0.042349506 -0.017625676 -0.030251168 0.06376311 0.086348295 -0.0014973016 -0.042945478
-0.031056305 -0.102588184 -0.089335114 -0.030898277 -0.066554844 -0.12567551 0.044536434 -0.006544727
0.03222616 -0.12853646 0.07568115 0.023179872 0.011188992 0.038215525 -0.0118799815 0.024957133
-0.049198713 -0.11236401 0.023031225 0.12581404 -0.086580366 -0.06875789 0.04200743 0.06661444
-0.058454774 -0.08040979 0.07326105 -0.042539354 0.062870964 -0.088613234 -0.07737882 0.03262993
-0.14287035 -0.07735481 -0.034798946 -0.053215396 0.11572719 0.2411446 0.08036785 -0.08602676
0.11226805 0.04683948 -0.009067381 0.020905973 -0.1207844 0.008083367 -0.0724189 -0.065809496
0.05230468 0.03669535 -0.15214987 0.02790539 0.13414857 0.020261344 0.02146746 -0.019984698
-0.07364747 0.009450945 -0.07634035 -0.053470712 -0.08623783 0.013718902 -0.008063995 0.14278896
-0.012123914 -0.106783904 0.1524486 0.020488797 0.11357886 0.0519309 -0.04442503 0.010565738
0.0589549 -0.12041412 0.09468998 -0.033413094 0.022618089 -0.09302677 0.06446684 0.0063635004
0.020164438 -0.09254683 0.026617967 -0.11917886 -0.10058629 -0.012123141 -0.011767005 0.048250813
-0.0962435 0.023935953 -0.09901445 -0.11259507 -0.02781413 0.06774396 -0.16170396 -2.96156e-05
-0.026322557 -0.030758448 -0.1490369 -0.10488388 0.059082374 -0.10595012 -0.04206324 -0.101052366
0.013758579 0.025591815 -0.06130367 -0.15575673 -0.08757239 0.027736992 0.073689505 -0.1224622
-0.058012076 -0.08814276 0.016021159 0.07295463 0.0276815 0.15450804 -0.10638831 -0.050057482
0.0013153137 -0.021579735 -0.03218691 0.021857666 0.046058573 0.028884785 0.07064121 -0.031692486
0.020636005 -0.06990684 0.07295496 -0.10704361 0.103522606 -0.010601541 -0.11079345 0.008133902
-0.028643774 -0.06979324 0.0646577 0.0016896535 -0.072434366 -0.1666492 0.1517389 -0.03134864
0.09939321 0.0019364266 0.005339343 -0.090014376 -0.07174343 -0.09249443 -0.027782036 -0.006300333
0.18234818 0.07793731 0.14010201 -0.102118045 0.016348237 -0.08736688 -0.0017071674 0.059574284

network_body._body_endoder.seq_layers.0.bias f4 [128]
00000000: 2eef 05bc 2138 36bc 90c8 133b 2bc3 1f3c
00000010: 9371 3b3c 249d a6bb 53b4 843c ac6b 993b
00000020: 08ca 963b 1caa 57bb 003d a23c 8dd3 dbbb
00000030: cf1a 7dbc b593 aa3b 8fbb 99bb 89c4 003c
00000040: a2bd aa3b d40f 3b3c 615a 44bc 97a2 43bc
00000050: 0139 b0bb a7d4 853c 789d 063a 27d3 433c
00000060: 43e8 8c3c 6c44 ee3b 5667 a6bb ddc2 aebb
00000070: f417 d3bb 1092 1d3c 3f86 9ebc de5a 1f3c
00000080: 19a0 42ba 3cf7 fbbb 7b6a 7b3b b89a 1ebc
00000090: 5983 813c e1a4 d33b c2d5 053c a801 9f3b
000000a0: b7fe 933c 87ca e03a edf5 923a f82c c0ba
000000b0: 6440 113c 724e 933c f6db 913c 5021 763c
000000c0: afee 4c3a 3d00 2abb c441 a8ba 41d5 383b
000000d0: 8793 97bc 26d9 12bb d77e 71bb f69f 2b3b
000000e0: 2208 c73b 948d 7e3a f15a a0bb a4c3 683c
000000f0: 6ac1 1c3b 532b c23a 5816 39bb e18b 14bc
00000100: ad34 503b 7926 603b 3154 7f3a ff06 bfbb
00000110: d022 2fbc 7e2b df3b f9a7 aeba af6f 29bc
00000120: 3bfc 49bb 50f0 8fbb 643d 12bc 2619 82bc
00000130: 0149 6bbc e8e0 1d3a 43e0 703b 2ca8 b5bb
00000140: 78a6 c3bb ebbe 4f3c f1a2 5c3c 7b33 8b3b
00000150: b1cb ddbb 0ebf e83a a03c fdbb bc3d 363c
00000160: 1c37 86bb 11a8 1dbc 1b37 29bc bdf4 78bc
00000170: 6844 163c c298 353c d98b 6b3b 5101 68bb
00000180: 923c 0f3c 6576 37bb 15e5 4e3c a5cc 56bc
00000190: 6159 e3bb e4cd 11bc 644d 2bbc 6683 973a
000001a0: 0882 8c3a 2956 b53b 09d2 90bc 6608 19bc
000001b0: 9ea9 a4bb 71dc 20bc b51d fdbb 656d 45bc
000001c0: 13a6 fb3b 08f0 95bb 8295 5138 bd42 bb3c
000001d0: ea32 52bc 5ec9 0dbb 12ef 6bbc c925 5cbc
000001e0: 1891 653c 884a 52bb a302 bfbb b0b0 ca3b
000001f0: bac0 803a 96be c83b 6e9b 3abb 666b 753c
-0.008174701 -0.011121781 0.0022549964 0.0097511215 0.011440652 -0.0050846506 0.016199267 0.004682025
0.0046017207 -0.003290779 0.019804478 -0.0067085684 -0.015448286 0.0052055963 -0.004691548 0.007859358
0.0052105943 0.011417348 -0.011984439 -0.01194062 -0.005377889 0.016336752 0.0005135159 0.011952198
0.017200595 0.00727134 -0.0050782366 -0.005333288 -0.0064420644 0.009617344 -0.019351123 0.009726254
-0.0007424369 -0.0076893847 0.0038363028 -0.0096804425 0.015809702 0.006458864 0.00816864 0.0048524924
0.018065793 0.0017150202 0.0011212208 -0.0014661839 0.00886545 0.017981742 0.01780508 0.015022591
0.0007817549 -0.0025940083 -0.0012836982 0.002820328 -0.018502964 -0.0022407263 -0.0036849284 0.0026187873
0.0060739676 0.0009710428 -0.0048936536 0.014206801 0.0023918995 0.0014813937 -0.0028242078 -0.009066553
0.0031769678 0.003420262 0.00097400235 -0.0058296914 -0.010689452 0.0068106046 -0.0013325206 -0.010341569
-0.0030820507 -0.004392661 -0.0089257695 -0.015881132 -0.014360667 0.00060225883 0.0036754764 -0.0055437293
-0.0059707724 0.012679796 0.013466583 0.0042480803 -0.0067686667 0.0017757134 -0.0077281743 0.011123117
-0.004095925 -0.00962259 -0.01032808 -0.015195069 0.009171583 0.011083784 0.003594151 -0.0035401175
0.008742468 -0.0027994153 0.01262786 -0.0131103145 -0.006938145 -0.008899186 -0.010455463 0.0011559546
0.0010719905 0.0055339527 -0.017678278 -0.009340381 -0.0050251028 -0.009818182 -0.0077244886 -0.0120500075
0.0076797097 -0.004575733 4.9968723e-05 0.022858972 -0.012829522 -0.0021634917 -0.0144002605 -0.013436743
0.014011644 -0.003208788 -0.0058291717 0.0061856136 0.0009823062 0.0061262352 -0.002847399 0.014979219

network_body._body_endoder.seq_layers.2.weight f4 [128, 128]
00000000: 7082 53be 5227 3abd 8232 b03d a7c9 6dbd
00000010: 09cd 56bd 9714 1bbd 708b 93bd 06ce 7fba
00000020: 872f bd3d c5ac 9dbc a0e9 c73d 75d0 57bd
00000030: 5ce7 2a3d 8864 95bd 14a6 8e3d 9161 36bd
00000040: 7b30 023e ee12 f6bc 058b 10be e862 203e
00000050: e0de 8c3d 878e 843d be5e d03d 1949 3f3d
00000060: 1a63 043c 8872 38bd c329 443d bab5 68bc
00000070: 1004 ffbd f23b 3a3e 8120 6e3d 7a46 c9bd
00000080: 9247 6f3d e417 c43d 11f4 b73d 40a2 c5bc
00000090: 5349 41bd 9d12 9bbd f7db abbc f83c 863d
000000a0: b56d 1c3d dac5 a73d 9634 4c3d 75a5 b1bd
000000b0: ab11 f1bd 9fa3 42bd ed4e f43c 5b44 853b
000000c0: 7ee3 c1bd 6c4d 03be 80f7 f83b 2f5a 2cbe
000000d0: e423 a73d 1a19 a43d 4f43 123e f59b 0a3e
000000e0: 8797 803d 6c42 953d f6e8 523e c3d7 913d
000000f0: 0312 c33d 67f8 ef3d fe3e 7b3d 6b1f 94bd
00000100: 031b 0fbe da51 833d 1d54 0a3e 2c76 2dbc
00000110: a0ee 523d 2917 6ebe 5136 5abd 7216 85bd
00000120: 8f5b e6bc 63aa 47bc 0875 8fbd d09f 1f3d
00000130: c409 c93c a7d3 2a3c a11b 7abd 3592 04be
00000140: d73c 413e d93e 073c 62a5 5f3d 0cb9 1fbd
00000150: 9b72 3c3b 7257 e6bd 22cc 05be 56b6 a3bd
00000160: 5a2b 56bb 2bca c83d f860 6d3d 2441 f03d
00000170: 2a66 d43d ff84 233d b2ea 91bd 885a 93bd
00000180: b388 de3d f7c2 cc3d 103c 1e3d 278b 8d3c
00000190: e754 bfbd 0be3 9f3d ddd1 e8bc 7071 9fbb
000001a0: bc5e 2f3d 7fec ac3d 8d4c f9bc 3d34 873d
000001b0: 813d 8abb 7e3f 58bb a7bc 2b3d 2bc7 4d3e
000001c0: 701c 2ebd f33a 94bd dc04 063e 5681 f4bd
000001d0: 0000 6abd d826 0c3c acae b73d 5ba4 24bd
000001e0: 707c 0a3d bc9e 64bd d83f ae3d f9ac 823e
000001f0: ec6b febd fef0 a8bd 9b50 adbc 0c54 0cbe
00000200: d567 91bd 2bfd 10bd f2c2 49be 6b91 0c3e
00000210: ace7 d03d 963d d73a 504a edbc 129e 06bd
00000220: 61de b53c e277 d7bc 1e69 d63d 1416 0cbe
00000230: 5ff7 2cbe ca4d d8bd a740 bcbd 7302 0ebd
00000240: dc55 8b3d c98f ee3c cdca 97bc d54c 4abe
00000250: ab9d 103d 956f 023e f305 97bd 0c6d 9ebc
00000260: 11e8 71bd d3f0 31be cf91 e9bd 3ecc a4bd
00000270: 4ca0 103e 18d7 39bc b0c5 553c e0ca 353e
00000280: af87 88bd bb9b 4d3d 4a81 15be f6e9 82bb
00000290: aace 8d3d 4018 4cbd 432b 1dbc 3aba be3c
000002a0: 2e91 d2bc 7a3a e33d fc44 353a 2b60 d63d
000002b0: 8a9f 12bb 430f 34be 559c 6d3d 6ba9 9c3d
000002c0: 9e92 ffbc 8a82 72bd 2aa8 1abd d736 4bbd
000002d0: 39d4 8f3c eea9 4cbd 917d 49bd beff 40bd
000002e0: f2b3 ab3c 1f17 153d b8f1 f93c fc96 133e
000002f0: 7e75 4b3d 244c 27bd 2765 a83c 22b7 81bd
00000300: 4b9f d43c fa1a 98bd 9076 d03c 22dc 443d
00000310: aa6a 083c 2768 2c3d 44dd 1abd dd81 10be
00000320: 8548 1c3b f6d0 00be 4e4a 163d 5fd7 efbc
00000330: 1953 85bb a658 523d b284 aebc 0262 5cbd
00000340: 5908 a7bd 10f0 f03d 24c1 d33d 4277 863d
00000350: 14bd b4bd 76a5 45bd 9af9 ad3d 7e5b 92bc
00000360: ec5f 9b3d 335b b5bd a924 c3bd a111 e9bd
00000370: 9d35 96bd aa72 57bd 3eb5 aebd 99cc e4bd
00000380: a8d8 02be 4134 ec3d 1f7a a7bd 8ddc 8bbd
00000390: 4de6 08bd 4542 003b 2906 90bd 988f 35bd
000003a0: 46bd 9f3d b142 953d 1325 0cbe c79d 503b
000003b0: d892 6f3d 85de 223d 40ec 12be 479b 453d
000003c0: bba5 11be db03 9ebd c304 573d 230a e93d
000003d0: ded3 e8bb dd8a 0c3e f63e 30be e0a3 9f3b
000003e0: 2c93 743e 38ca 7bbc 5067 0f3c 6034 2fbe
000003f0: c3d3 3ebd a8f9 e4bb 760f 0fbe 16e9 2f3d
-0.20655227 -0.045447655 0.086033836 -0.05805364 -0.05244163 -0.037861433 -0.0720433 -0.0009758178
0.09237581 -0.019247422 0.09761357 -0.052689034 0.041724548 -0.072945654 0.06965271 -0.04452664
0.12713806 -0.030038323 -0.14115532 0.1566273 0.068784475 0.064724974 0.10174321 0.04670057
0.008080268 -0.0450311 0.04789139 -0.014203483 -0.12451947 0.1818693 0.058136467 -0.098278955
0.058417864 0.09574869 0.08982099 -0.024125218 -0.047189068 -0.075719096 -0.02097891 0.065545976
0.038190562 0.08192034 0.049854837 -0.086741365 -0.11770948 -0.047519322 0.029822791 0.0040669865
-0.09467219 -0.12822503 0.0075978637 -0.16831277 0.081611425 0.080126 0.14283489 0.13536055
0.062789015 0.072880596 0.2059668 0.071212314 0.0952492 0.11717301 0.06133937 -0.07232555
-0.13975148 0.06412096 0.13508649 -0.010587256 0.0514971 -0.23251022 -0.053274456 -0.06498422
-0.02811983 -0.012186619 -0.07004744 0.03897077 0.02454079 0.010426438 -0.061061505 -0.12946399
0.18870865 0.00825473 0.05460108 -0.038994834 0.0028754834 -0.112471476 -0.13066152 -0.07993762
-0.0032679648 0.098041855 0.057953805 0.117311746 0.10371049 0.039921757 -0.07124843 -0.07195002
0.10865917 0.09998124 0.0386315 0.017278267 -0.09342366 0.07806977 -0.028420383 -0.0048658177
0.042814955 0.084435456 -0.03043201 0.066017605 -0.0042187576 -0.0032996829 0.04192796 0.20095508
-0.04250759 -0.07237806 0.13087791 -0.11938731 -0.057128906 0.008554183 0.08968863 -0.040195804
0.03381008 -0.055815443 0.08508271 0.25522593 -0.12422928 -0.082490906 -0.0211566 -0.13703936
-0.070998825 -0.03539769 -0.19703272 0.13727348 0.10200438 0.0016421552 -0.028966099 -0.03286559
0.022200765 -0.026302282 0.10469268 -0.13680297 -0.1689124 -0.10561712 -0.09192019 -0.034670305
0.06803486 0.029121296 -0.01852932 -0.19755872 0.035306614 0.12737878 -0.073741816 -0.019339107
-0.059059206 -0.17377023 -0.11404764 -0.080467686 0.14123648 -0.011342786 0.013047621 0.17753172
-0.066665046 0.050197344 -0.14600101 -0.0039951755 0.06924184 -0.049827814 -0.009592834 0.02328216
-0.025703993 0.11095138 0.00069148815 0.10467561 -0.0022372925 -0.17583947 0.058010418 0.076495014
-0.031197842 -0.059206523 -0.03775803 -0.049612846 0.01755725 -0.049966745 -0.049192015 -0.047118895
0.020959828 0.036399003 0.030510768 0.14413065 0.049672596 -0.040844098 0.020556046 -0.06333758
0.025954863 -0.0742702 0.02544716 0.048061498 0.008326212 0.042091515 -0.03780867 -0.14112039
0.0023846936 -0.12579712 0.036691956 -0.029277502 -0.004068744 0.051354073 -0.021303508 -0.053804405
-0.08155889 0.11764538 0.10339573 0.065657154 -0.08825126 -0.0482535 0.08494873 -0.017865892
0.07586655 -0.088552855 -0.09528477 -0.113803156 -0.07334445 -0.052599587 -0.08530663 -0.111718364
-0.1277796 0.11533404 -0.081775896 -0.06829176 -0.033422757 0.001957075 -0.07032425 -0.044326395
0.07799773 0.07288111 -0.13686018 0.0031832324 0.05848965 0.039762992 -0.14347935 0.048243787
-0.14223377 -0.07715579 0.052494776 0.113788866 -0.0071053347 0.13724847 -0.17211518 0.0048718303
0.23884267 -0.015368037 0.008752659 -0.17109823 -0.04658867 -0.006987769 -0.13970742 0.042946897

network_body._body_endoder.seq_layers.2.bias f4 [128]
00000000: ed7a 02bc ff40 9b3c e639 49bc e9ca ef3b
00000010: a8c6 2fb7 fd77 c0bb a176 82bc 1f3f 33bb
00000020: 0937 b33a e53d 083c 49a1 383b b98f 1cbc
00000030: 0fab 06bb 0e15 833b d949 24bc 4ebe 8e3b
00000040: bb7e 9bbb ea96 85bc e58b 7e3c a523 95bb
00000050: 12bb b33c 8643 b03b fab3 acbc ab47 8abc
00000060: b440 263c 7610 463c db28 88bb 453e 1a3c
00000070: b4ee 753b 1a42 073c 44e2 013c b497 d839
00000080: 84f2 9bbc c321 fbbb 4e45 5bbb d864 223c
00000090: 6e7e dd3c bed2 10bb 9193 85bc db66 583b
000000a0: 179c b23a c6ec 873b a7c3 ddbb a3f1 e23b
000000b0: 25a7 a2bc 495f 373b 3045 503a 6df4 95bb
000000c0: 676c 533b e278 0ebc f1fb 65bc 4404 91bb
000000d0: a10f 81bc 31be 063b 995b 93bc c24d b2bc
000000e0: 5598 afbb e5b7 48bc bc5d 473c 6e44 003c
000000f0: 8363 fcbb ba14 253c 7d15 013c d1af 58bb
00000100: f467 ab3b de0a e3b9 3a3e 9b3a 8719 a53b
00000110: 71b5 16bc b834 d53c 2e67 6d3c c934 dcba
00000120: e2bf 023b 574a dabb eb93 adbb 256a 7dbc
00000130: e6f5 8bbc b821 a4bb ac2c 973c 575c 043c
00000140: 78b8 8fbc 45d2 9ebb 4134 8f3b 5223 9abb
00000150: 0a20 a2bc 12b2 6ab9 c0cf a0ba ddba 15bc
00000160: 3cd5 ccbb cd4c 5fbb 7a71 2f3a 2a18 b3bc
00000170: f8b8 d2bb 4a70 c9bb b68a 55bc c38e be3c
00000180: 8dce 1dba efaa 01bc 8dd9 dabb d3ab 01bc
00000190: 9a04 e8bb 6884 7cbc 75da 6ebc a942 583c
000001a0: 6ddb 95bc 3e50 00bc ce43 debb 6dbe e33a
000001b0: 19e5 b73c e5d6 87bb cc41 e73b 9fae 9c3c
000001c0: 9836 113c 39c8 90bc 47c2 7dbb e126 16bc
000001d0: 5336 b03c 99c5 b7bb 022e 6c3a d5a8 7bbc
000001e0: 938f ecbb 73aa d53b a5d2 cd3b 3755 f1bb
000001f0: 67ec 9ebc 5f7c 2dbc f96a a1bb c15d f63b
-0.007963878 0.018951891 -0.0122818705 0.00731789 -1.0477066e-05 -0.0058736787 -0.015925707 -0.0027350856
0.0013673018 0.008315538 0.0028172305 -0.0095557505 -0.0020548736 0.0040003126 -0.010027372 0.004356182
-0.004745332 -0.016307313 0.015536283 -0.0045513683 0.021939788 0.005379143 -0.021081913 -0.016879877
0.010147262 0.0120888855 -0.004155261 0.00941426 0.0037526311 0.008255506 0.007927481 0.00041311758
-0.019036539 -0.007663937 -0.0033458057 0.009911738 0.027037825 -0.0022098268 -0.016305717 0.003302029
0.0013626841 0.0041480986 -0.0067677083 0.006925778 -0.019855091 0.0027980378 0.000794488 -0.004576257
0.0032260658 -0.008695813 -0.014037118 -0.0044255573 -0.015754523 0.002056014 -0.017988013 -0.021765593
-0.0053587356 -0.012250875 0.012168344 0.007828815 -0.0077022924 0.010075742 0.007878658 -0.003306378
0.005230898 -0.0004330491 0.0011844106 0.0050384435 -0.009198532 0.026026115 0.014489932 -0.0016800399
0.0019950797 -0.006661694 -0.005297174 -0.015467201 -0.017085027 -0.0050089024 0.018453918 0.008078656
-0.017544016 -0.0048468434 0.004370243 -0.0047039175 -0.019790668 -0.00022382315 -0.0012268946 -0.00913879
-0.0062510055 -0.0034072876 0.00066926295 -0.021862108 -0.0064307414 -0.006147419 -0.01303356 0.023261433
-0.0006019853 -0.007914289 -0.006678766 -0.007914501 -0.0070806267 -0.0154124275 -0.014578451 0.013199487
-0.018293107 -0.007831631 -0.0067829853 0.0017375477 0.02244811 -0.0041454905 0.007057404 0.019126235
0.008863114 -0.017673599 -0.0038720535 -0.009164543 0.021510279 -0.0056082723 0.0009009541 -0.015360077
-0.007219264 0.0065205633 0.0062812143 -0.0073648947 -0.019399835 -0.010588734 -0.004926082 0.0075185006

action_model._discrete_distribution.branches.0.weight f4 [7, 128]
00000000: feb8 7d3b ad9e 06bb c00d 09bc afa9 52bb
00000010: 9abd f1bb cf44 963c e3eb b63c a896 1fbb
00000020: 0a7c 453c 526e e43a 9fe4 3d3c 457a e63a
00000030: 7819 413c 22bf 543b 8570 7f3b 21f3 57bc
00000040: f0a4 963c 1cd9 823c c29e 813b 3197 333c
00000050: 01e7 34bc cb9e 34bc 6999 8e3c 66bd b73c
00000060: bc96 33bb eabe 50ba 587e 1f3c 3e75 d23b
00000070: bd70 743b e2e6 013c 83f2 babb 4e22 503c
00000080: 80de 2b3c 1e15 753b c989 c73c 9f07 b23b
00000090: 380a c4bc 6fa5 adbb 541e cc3b 6de2 043c
000000a0: 1163 503c 9790 0f3b 05b9 22bc 7884 473c
000000b0: 56a1 ed3c af6b a139 fa05 61bc b722 463b
000000c0: f210 29bb fa40 fc3b ade6 5bbc 54fb 5c3b
000000d0: 9626 42b9 f3fc 163c 629a 843c 5b87 963c
000000e0: 2de5 a93c 6977 953c 130e fabb 95bc 82bc
000000f0: 6e7f 1e3c fdee 003c 27ab a4bb 479f e6bb
00000100: 3e55 69b8 eafc e8b9 5e0d 0c3c 5049 f03b
00000110: 4f61 273c ff5c 33bc cbf6 e13b 08ea ea37
00000120: ef65 4f3c e38d f03b 6961 c03c de7a 943c
00000130: ea70 293c e490 5f3c a3cb a73b ecce 0abb
00000140: cc93 2a3c 8a34 afbb 4a2a 0b3c 907a 013b
00000150: fae7 f13b 40b7 463b 943b 893b e013 b93c
00000160: dc34 d0bb b23d 0f3c d19d b0ba 6c4e fb3b
00000170: df8c 56bb b1ff 9d3c 776c 6a3b ee5b 24bb
00000180: 4bb0 a73b a2e6 813b 129c 123b 2db1 943a
00000190: 7231 e8bb bfab d73a 46d7 5b3c ec20 77ba
000001a0: 0271 753c a17b 023c 04ae 5c3b e7a5 03bc
000001b0: f740 5abb ced1 9abb fe0e 41bb da71 37bc
000001c0: 22b7 e1b9 441d e93b 715b 213c fb6e b13b
000001d0: cde2 6d3b 342d 0d3c 68f7 4c3c 32d1 f93b
000001e0: 1397 b0ba f63c 373c 0aa6 f63a bd85 d5ba
000001f0: b757 573c 62ff 1c3c 2599 043c e987 be3b
00000200: cded 7c3c 1311 69bb a6da b33b bcfa cfbb
00000210: f9cb 103c 49a2 57bb 7c1b df3b a607 a8bb
00000220: 2793 4f3b 1646 6c3c e2f8 1a3b b07c d9bb
00000230: e3d3 cabb dec2 34bc 2474 a8bb 2f90 01bc
00000240: eb4b 1eba 092c 4d3c 160e 28bc d145 f43b
00000250: 54c8 57bc 9d6e ce39 b5c9 333c 061d 503c
00000260: 1622 ddb9 7ec8 babb d4b8 92bb 7539 923c
00000270: 48a1 99bb 5833 e13b fd33 743b dd4c b43b
00000280: 3a41 573c 2038 933c 4766 dc3b 8d64 7eba
00000290: a75f c4bb a05f 03bb 9e10 f03a d418 bfbc
000002a0: c815 99bb cbdc 383c 9d84 c7bb e5b4 ca3c
000002b0: 7043 ba3c a23e 10bc 8824 943a 6e4b 8e3b
000002c0: 3a00 cb3b edb7 2c3c d115 9c3b 2397 333c
000002d0: 2d8e 7d3c 0187 2cbc 1a9d 373c dfc4 363b
000002e0: 65db e23b a1ff af3b e10b c1bb d69d a73b
000002f0: 125a b83b a586 853b 8286 de3a 2c59 dd3a
00000300: 7f0e 27bc 6468 b6ba 7a3f b638 f341 033c
00000310: 3542 093c ddd1 10bc 4455 1d3b b2a5 5ebb
00000320: 84f0 1dbb 3d10 05bc def5 11bb 4ea6 843c
00000330: 471e a3ba 65fa 953b c547 48bc 9b64 79bb
00000340: 329e 283c 58f4 5c3c ea1f e13b 1487 db3b
00000350: 172b 963c 5406 843b 916b 9bba 3368 903b
00000360: 2c9e 073c 7bc0 f23b 4515 dc3b d8b5 2e3c
00000370: 37db 1d3c f613 a43c 5b7e e9ba f0c4 c7bb
00000380: 0ef0 b23b cbca 39bc d1b7 963c 929e 933c
00000390: 127d 02bb a3c3 5a3c 5e53 a53c 4426 bbbb
000003a0: bf20 3e3c 38e0 60bb 9028 b23c 10e1 8f3b
000003b0: ce96 2bbc 213b 08bc 1d05 b03b c8d9 8abc
000003c0: e707 07bc 6567 413c 598a 163c c7f0 03bb
000003d0: 22e8 10bc 4e76 933c 0e14 06bc db9d 993b
000003e0: eb37 c03c 62b6 153b 5c65 2abc d4ee 053b
000003f0: a0e0 5e39 b7da e0bb f822 863b 6c05 69bb
0.0038715 -0.0020541355 -0.008365095 -0.0032144596 -0.0073773386 0.018343357 0.022329276 -0.0024351273
0.012053499 0.0017427898 0.011590152 0.0017584047 0.011785857 0.0032462557 0.003897698 -0.013180525
0.018389195 0.015972666 0.003955693 0.01096134 -0.011041404 -0.011024187 0.017407136 0.02242918
-0.0027403077 -0.0007963019 0.009734713 0.0064226678 0.0037298643 0.007928582 -0.005705179 0.012703491
0.01049006 0.003739662 0.024357693 0.0054330374 -0.023930654 -0.0052992622 0.0062292013 0.008110625
0.012718932 0.002190625 -0.009931807 0.012177579 0.029007595 0.00030788544 -0.013734335 0.0030233094
-0.0025797454 0.0076981755 -0.013421697 0.003371914 -0.00018515656 0.009215581 0.016186897 0.01837509
0.020739162 0.018245416 -0.0076310723 -0.015959064 0.009673936 0.007869479 -0.0050252858 -0.0070380303
-5.5630917e-05 -0.00044438924 0.008548109 0.0073329583 0.010216071 -0.010947465 0.006895875 2.8003953e-05
0.01265858 0.007341133 0.023483949 0.018124994 0.010341862 0.013645384 0.005120711 -0.0021180464
0.010411214 -0.0053468393 0.008493969 0.001975689 0.00738239 0.0030321628 0.0041880105 0.022592485
-0.0063539576 0.008742737 -0.0013474767 0.0076692607 -0.0032737774 0.019286962 0.0035770216 -0.0025079208
0.0051174513 0.003964261 0.0022370857 0.0011344306 -0.0070859725 0.0016454383 0.013418024 -0.0009427208
0.014980556 0.007964046 0.0033673057 -0.00803516 -0.0033302882 -0.0047247177 -0.00294584 -0.011196578
-0.0004305179 0.0071140844 0.0098484615 0.005414841 0.0036298514 0.008616734 0.012510158 0.007623815
-0.0013472758 0.011183968 0.0018817794 -0.0016290467 0.013143471 0.009582372 0.008093153 0.0058145416
0.0154375555 -0.0035563156 0.0054887114 -0.0063470285 0.008837693 -0.0032903126 0.0068086963 -0.005127865
0.0031673403 0.014421007 0.002364688 -0.0066371784 -0.0061898096 -0.011032788 -0.005140798 -0.007907911
-0.00060385343 0.012522706 -0.010257265 0.007454612 -0.013170321 0.00039373795 0.010973384 0.012702232
-0.000421778 -0.00570017 -0.0044775996 0.017849663 -0.0046884157 0.0068725757 0.0037262433 0.005502327
0.01313811 0.017971098 0.0067260596 -0.0009704314 -0.005992848 -0.002004601 0.0018315499 -0.023327269
-0.004671786 0.01128311 -0.006088807 0.02474446 0.022737235 -0.008803995 0.0011302391 0.004342488
0.0061950954 0.010541898 0.004763343 0.010961327 0.015475792 -0.010530234 0.0112068895 0.002788834
0.0069231265 0.0053710495 -0.0058913087 0.005115251 0.0056259716 0.004074889 0.0016977342 0.0016887537
-0.010196327 -0.0013916609 8.69026e-05 0.008011329 0.008377601 -0.008839098 0.002400712 -0.0033973274
-0.0024099657 -0.008121547 -0.0022271792 0.016192582 -0.0012444936 0.0045769685 -0.012224142 -0.003805435
0.010291623 0.01348599 0.0068702595 0.006699452 0.018331094 0.0040290747 -0.0011857619 0.0044069528
0.008277457 0.0074081994 0.0067164027 0.010663472 0.009634784 0.02002905 -0.0017814146 -0.006096475
0.0054607457 -0.0113398535 0.018398197 0.018019948 -0.0019910973 0.0133523075 0.020181354 -0.0057113487
0.011604487 -0.0034313332 0.021747857 0.004390843 -0.010472966 -0.008314879 0.0053717033 -0.01694955
-0.00824163 0.011804436 0.009188258 -0.0020132528 -0.008844407 0.018000748 -0.008183492 0.0046880073
0.023464164 0.0022844304 -0.0104001425 0.0020436542 0.00021255249 -0.0068620103 0.004093524 -0.003555621

action_model._discrete_distribution.branches.0.bias f4 [7]
00000000: 5db8 eabb 2cc0 05bc f252 7eba 9dda 853c
00000010: 09af c7bb 8cc4 a2bb e481 45bb
-0.007163091 -0.008163493 -0.0009701691 0.016339594 -0.006093864 -0.004967278 -0.0030137235
