Source/results/WeightAgent_Training/WeightAgent_Training/WeightAgent_Training-6591.onnx (onnx, 155824 bytes, 6 tensors)

network_body._body_endoder.seq_layers.0.weight f4 [128, 163]
0	0xbdb1fa40	-0.086903095
1	0x3c09f0d6	0.008419236
2	0xbc2bc638	-0.010484271
3	0xbc839420	-0.016061842
4	0xbabbb59a	-0.0014321089
5	0xbd028b07	-0.031870868
6	0xbdb0fc2b	-0.08641847
7	0x3d167227	0.036729958
8	0x3e034862	0.1282058
9	0xbd65b933	-0.056084823
10	0xbd759631	-0.059957687
11	0x3dc8beaa	0.09801991
12	0x3e2668e5	0.16250952
13	0xbdb294d6	-0.087197945
14	0xbd773ca6	-0.060360573
15	0xbd700c85	-0.05860569
16	0xbdb89301	-0.09012414
17	0x3e8b5132	0.27210385
18	0xbd99f2f9	-0.075170465
19	0x3c9432cf	0.018090634
20	0xbcd4c025	-0.025970528
21	0xbd82b908	-0.06382948
22	0x3df02628	0.11726028
23	0x3d3541f1	0.04425234
24	0xbd0f5e25	-0.035001893
25	0x3d0226da	0.031775333
26	0xbc669b5c	-0.0140751265
27	0x3da01e80	0.078183174
28	0xbd56979a	-0.052390672
29	0x3d7c42a1	0.06158698
30	0xbd0a9f8d	-0.033843566
31	0xbdcdadda	-0.10042925
32	0x3e210e0d	0.15728016
33	0x3b2178ae	0.002463858
34	0xbdd2fe24	-0.1030238
35	0xbd233850	-0.039848626
36	0x3dfcb5cb	0.12339362
37	0xbcaba3a2	-0.02095205
38	0xbd18d62c	-0.037313625
39	0xbdab86f0	-0.08375347
40	0x3e4a86d6	0.19777998
41	0xbd5c57ba	-0.0537946
42	0x3cf7c496	0.030245107
43	0x3bb66316	0.005566011
44	0x3e1d455f	0.15358494
45	0x3d0384bc	0.032109007
46	0xbe21ac38	-0.15788352
47	0xbc5ef9fa	-0.013609404
48	0x3d3d0490	0.04614693
49	0x3d746a92	0.059671946
50	0x3b0080a7	0.0019607933
51	0xbe5bdf25	-0.21471842
52	0x3d83c3ba	0.06433816
53	0xbd4863ae	-0.048923187
54	0xbd1fd931	-0.03902549
55	0x3c12532f	0.008930965
56	0xbd7fc011	-0.06243903
57	0xbd766b2e	-0.06016081
58	0xbd90d8dc	-0.07072613
59	0x3d538a02	0.051645286
60	0x3d7023e8	0.058627993
61	0x3d6c0d78	0.057630032
62	0xbd4f8c38	-0.050670832
63	0xbde58692	-0.11207308
64	0x3d591af4	0.05300422
65	0x3d9b1ae2	0.07573487
66	0xbd182081	-0.037140373
67	0xbdf46959	-0.11934156
68	0xbbe158d4	-0.006877044
69	0xbda55017	-0.080719166
70	0xbd253e16	-0.040342413
71	0x3d94ff74	0.07275286
72	0xbdc5a111	-0.096498616
73	0xbe0d690a	-0.138096
74	0xbc8d355b	-0.017237356
75	0xbcdb4399	-0.026765632
76	0xbe122140	-0.14270496
77	0x3dc49675	0.0959901
78	0xbd9b2789	-0.075759
79	0x3d7caf68	0.061690718
80	0xbe1760c7	-0.14783011
81	0xbdf917a0	-0.12162709
82	0x3e3a170d	0.18172856
83	0xbbdc6714	-0.006726155
84	0x3df04308	0.11731535
85	0x3d1a1fa6	0.03762784
86	0x3ce1600f	0.027511625
87	0x3d2c7dad	0.04211204
88	0x3cae13b6	0.021249633
89	0xbd80355e	-0.06260179
90	0x3da1a38f	0.078925245
91	0xbc753a70	-0.014967546
92	0x3d27d025	0.040969986
93	0x3d5862ff	0.052828785
94	0xbe11ca80	-0.14237404
95	0x3b8df1b1	0.0043317904
96	0x3dc9133f	0.09818124
97	0xbbaf2b70	-0.0053457543
98	0xbd8d4bd9	-0.068992324
99	0xbc41e707	-0.011834866
100	0xbd906f3b	-0.070524655
101	0x3e1503ab	0.1455218
102	0xbda70089	-0.08154399
103	0xbe097b43	-0.13425927
104	0x3e1c3d0c	0.15257663
105	0x3d7c4955	0.061593372
106	0x3d9e0358	0.077154815
107	0x3d6eac1c	0.058269605
108	0xbc6d3511	-0.014477984
109	0xbc81bf24	-0.015838213
110	0x3cf39d00	0.02973795
111	0xbd9cae06	-0.0765038
112	0xbbea3226	-0.0071470914
113	0xbd64add5	-0.05582984
114	0xbc4f6a9a	-0.012659693
115	0x3bfb4c3f	0.0076690014
116	0xbe4562e6	-0.19276008
117	0x3b8b266f	0.004246525
118	0x3d9e2aae	0.07722984
119	0x3cc7d3a4	0.02439291
120	0x3d143617	0.036184397
121	0xbd0fa551	-0.035069767
122	0xbcb32169	-0.021866517
123	0xbd5062c0	-0.050875425
124	0x3b2cdbb6	0.0026376075
125	0xbd8da31d	-0.06915877
126	0xba711728	-0.0009196871
127	0xbd1220bd	-0.035675753
128	0x3d7e01b0	0.062013328
129	0xbd4319de	-0.04763209
130	0x3e1882d4	0.14893657
131	0x3d64c624	0.055853024
132	0x3dbab728	0.091169655
133	0x3c8aa036	0.016922098
134	0xbd2ae321	-0.041720513
135	0xbd084175	-0.03326555
136	0xbd646627	-0.055761483
137	0xbda18d8b	-0.07888325
138	0x3cb2866a	0.02179261
139	0x3c9817e1	0.018566074
140	0xbbe42e3d	-0.00696352
141	0xbd3964ec	-0.045262262
142	0xbd7324e3	-0.05936135
143	0xbc1180ee	-0.008880837
144	0xbdacb5b1	-0.084330924
145	0xbda18a42	-0.07887699
146	0xbd51b85b	-0.051201206
147	0x3d313a72	0.04326863
148	0x3d327dbf	0.043576952
149	0x3d3330c0	0.043747663
150	0xbd7385a4	-0.05945362
151	0xbd4535c5	-0.04814698
152	0xbd4778ba	-0.04869912
153	0x3d292ce9	0.041302595
154	0x3d2bd38d	0.041949797
155	0x3d13a436	0.036045276
156	0xbd96a333	-0.073553465
157	0xba793d86	-0.0009507764
158	0x3d632329	0.055453453
159	0x3d002332	0.031283565
160	0xbdde467f	-0.1085329
161	0x3d8f99c9	0.07011754
162	0xbce4b5a6	-0.027918648
163	0x3e02abae	0.12760803
164	0x3d800e2b	0.06252702
165	0xbd7a4377	-0.061099496
166	0x3d7529ec	0.059854433
167	0x3d3a1bf0	0.0454368
168	0x3bf58457	0.007492583
169	0x3c98d48d	0.01865604
170	0xbbc3fd40	-0.0059811175
171	0xbdd5c982	-0.10438825
172	0xbd197708	-0.037467033
173	0xbdd14b34	-0.10219422
174	0x3c9ca943	0.019123679
175	0x3dc72c4e	0.09725247
176	0xbd9549bf	-0.072894566
177	0x3b135582	0.0022481387
178	0xba209ba5	-0.00061267085
179	0x3e162cd1	0.14665534
180	0xbe37743e	-0.17915437
181	0xbdeb6b55	-0.11495081
182	0x3bde3949	0.0067817313
183	0x3df9e12c	0.12201151
184	0x3db23ef4	0.087034136
185	0x3d7f837e	0.06238126
186	0x3cd16637	0.025561435
187	0xbd09be26	-0.033628605
188	0x3db8aa96	0.09016912
189	0xbc076d3c	-0.00826579
190	0x3df3b1d3	0.11899152
191	0xbd1cf663	-0.03832091
192	0x3ce1f643	0.027583247
193	0xbd4fc72d	-0.05072706
194	0xbd6cf244	-0.05784823
195	0x3de8d010	0.1136781
196	0xbd1b7ad5	-0.03795894
197	0xbc44a53d	-0.0120022865
198	0x3e112c77	0.14177118
199	0xbe2ba241	-0.16761114
200	0xbdb73e09	-0.08947379
201	0xbdb465b6	-0.08808462
202	0x3d6d0e87	0.057875182
203	0xbd15c70c	-0.03656678
204	0xbd9b3374	-0.07578173
205	0x3d9b7551	0.07590736
206	0x3bd349e7	0.006448019
207	0x3c30e28d	0.010796201
208	0x3c0d2f74	0.008617271
209	0xbd528fac	-0.051406547
210	0x3c79310c	0.015209448
211	0xbd621837	-0.055198874
212	0xbd162899	-0.03665981
213	0xbd518ca1	-0.051159505
214	0x3df6419b	0.12024232
215	0xbcdc7b13	-0.026914155
216	0xb9896611	-0.00026206722
217	0x3d1efd05	0.038815517
218	0xbcd0584f	-0.025432734
219	0xbd26cd17	-0.040722933
220	0xbe08d719	-0.13363303
221	0x3c829322	0.015939299
222	0xbdf9fd0f	-0.1220647
223	0x3b974933	0.0046168803
224	0xbe235013	-0.15948515
225	0x3d567067	0.05235329
226	0xbc634dfe	-0.013873575
227	0x3d87c2b7	0.06628936
228	0x3cced11e	0.0252462
229	0xbc7acd28	-0.015307702
230	0x3de75ac0	0.11296606
231	0x3d624904	0.055245414
232	0xbdf6f47d	-0.12058351
233	0xbdbef025	-0.09323148
234	0xbd9aea0f	-0.075641744
235	0xbbb15e01	-0.0054128175
236	0xbdab4d4d	-0.08364353
237	0xbdbd78a7	-0.09251528
238	0x3e7150ea	0.23566023
239	0x3de0b57c	0.109721154
240	0x3e0f1ad5	0.1397508
241	0xbde324c1	-0.110909946
242	0x3c5a3998	0.0133193955
243	0xbc6f4ea7	-0.0146061545
244	0x3d52b429	0.051441345
245	0x3d28715f	0.041123744
246	0xbdde662a	-0.1085933
247	0xbd6bf5e1	-0.057607535
248	0xbbf243b4	-0.0073933247
249	0x3e345568	0.17610705
250	0x3c940116	0.018066924
251	0x3d1247df	0.035713073
252	0xbd677c03	-0.05651475
253	0x3dc65ee5	0.096860684
254	0x3d4f90fd	0.05067538
255	0xbb4b34c1	-0.0031006786

network_body._body_endoder.seq_layers.0.bias f4 [128]
0	0x00000000	0.0
1	0x00000000	0.0
2	0x00000000	0.0
3	0x00000000	0.0
4	0x00000000	0.0
5	0x00000000	0.0
6	0x00000000	0.0
7	0x00000000	0.0
8	0x00000000	0.0
9	0x00000000	0.0
10	0x00000000	0.0
11	0x00000000	0.0
12	0x00000000	0.0
13	0x00000000	0.0
14	0x00000000	0.0
15	0x00000000	0.0
16	0x00000000	0.0
17	0x00000000	0.0
18	0x00000000	0.0
19	0x00000000	0.0
20	0x00000000	0.0
21	0x00000000	0.0
22	0x00000000	0.0
23	0x00000000	0.0
24	0x00000000	0.0
25	0x00000000	0.0
26	0x00000000	0.0
27	0x00000000	0.0
28	0x00000000	0.0
29	0x00000000	0.0
30	0x00000000	0.0
31	0x00000000	0.0
32	0x00000000	0.0
33	0x00000000	0.0
34	0x00000000	0.0
35	0x00000000	0.0
36	0x00000000	0.0
37	0x00000000	0.0
38	0x00000000	0.0
39	0x00000000	0.0
40	0x00000000	0.0
41	0x00000000	0.0
42	0x00000000	0.0
43	0x00000000	0.0
44	0x00000000	0.0
45	0x00000000	0.0
46	0x00000000	0.0
47	0x00000000	0.0
48	0x00000000	0.0
49	0x00000000	0.0
50	0x00000000	0.0
51	0x00000000	0.0
52	0x00000000	0.0
53	0x00000000	0.0
54	0x00000000	0.0
55	0x00000000	0.0
56	0x00000000	0.0
57	0x00000000	0.0
58	0x00000000	0.0
59	0x00000000	0.0
60	0x00000000	0.0
61	0x00000000	0.0
62	0x00000000	0.0
63	0x00000000	0.0
64	0x00000000	0.0
65	0x00000000	0.0
66	0x00000000	0.0
67	0x00000000	0.0
68	0x00000000	0.0
69	0x00000000	0.0
70	0x00000000	0.0
71	0x00000000	0.0
72	0x00000000	0.0
73	0x00000000	0.0
74	0x00000000	0.0
75	0x00000000	0.0
76	0x00000000	0.0
77	0x00000000	0.0
78	0x00000000	0.0
79	0x00000000	0.0
80	0x00000000	0.0
81	0x00000000	0.0
82	0x00000000	0.0
83	0x00000000	0.0
84	0x00000000	0.0
85	0x00000000	0.0
86	0x00000000	0.0
87	0x00000000	0.0
88	0x00000000	0.0
89	0x00000000	0.0
90	0x00000000	0.0
91	0x00000000	0.0
92	0x00000000	0.0
93	0x00000000	0.0
94	0x00000000	0.0
95	0x00000000	0.0
96	0x00000000	0.0
97	0x00000000	0.0
98	0x00000000	0.0
99	0x00000000	0.0
100	0x00000000	0.0
101	0x00000000	0.0
102	0x00000000	0.0
103	0x00000000	0.0
104	0x00000000	0.0
105	0x00000000	0.0
106	0x00000000	0.0
107	0x00000000	0.0
108	0x00000000	0.0
109	0x00000000	0.0
110	0x00000000	0.0
111	0x00000000	0.0
112	0x00000000	0.0
113	0x00000000	0.0
114	0x00000000	0.0
115	0x00000000	0.0
116	0x00000000	0.0
117	0x00000000	0.0
118	0x00000000	0.0
119	0x00000000	0.0
120	0x00000000	0.0
121	0x00000000	0.0
122	0x00000000	0.0
123	0x00000000	0.0
124	0x00000000	0.0
125	0x00000000	0.0
126	0x00000000	0.0
127	0x00000000	0.0

network_body._body_endoder.seq_layers.2.weight f4 [128, 128]
0	0xbca553f9	-0.020181643
1	0x3d9ef5f5	0.07761756
2	0x3d96f193	0.073702954
3	0xbdb677b6	-0.08909552
4	0x3c8c75b2	0.017145965
5	0x3d053ff5	0.032531697
6	0xbc09ee84	-0.008418683
7	0x3e6d94fe	0.23201367
8	0x3e1ac5a2	0.15114453
9	0x3e0bb3a9	0.13642754
10	0x3cc4dbf9	0.024030672
11	0xbd9ec392	-0.07752146
12	0xbe07bb1c	-0.1325497
13	0x3e52d870	0.20590377
14	0x3cae9faa	0.021316368
15	0x3cf0895f	0.029362379
16	0xbe6990a1	-0.22809078
17	0xbe108a03	-0.14115147
18	0x3dce4ae8	0.10072881
19	0x3d9cf6c7	0.076642565
20	0xbd988501	-0.074472435
21	0x3d759324	0.059954777
22	0xbda4d135	-0.080477156
23	0x3d77dd56	0.060513817
24	0x3c94b81a	0.018154193
25	0xbe251f0f	-0.16125129
26	0xbd667a9e	-0.05626928
27	0xbd8885cf	-0.06666147
28	0xbe2bdd01	-0.16783525
29	0xbd1dfbf4	-0.03857036
30	0x3d6e40b3	0.05816717
31	0x3cd6aca4	0.026205368
32	0x3d27def4	0.04098411
33	0xbe0ffe60	-0.1406188
34	0x3da15227	0.078769974
35	0xbd85ae13	-0.06527343
36	0xbe13ddb8	-0.14440048
37	0x3c4f0658	0.01263579
38	0x3d6826ca	0.056677617
39	0xbdf62955	-0.12019602
40	0x3caf8026	0.02142341
41	0xbc387856	-0.011259159
42	0x3e2c3c2e	0.16819832
43	0xbcda3af8	-0.026639447
44	0x3db49198	0.08816832
45	0xbd3459ae	-0.044030838
46	0x3d3eb24e	0.046556763
47	0x3dd8ec7a	0.10591979
48	0x3d41face	0.047358327
49	0x3af0f3b5	0.0018383177
50	0x3e09f667	0.13472901
51	0xbe07531d	-0.13215299
52	0x3e0bacfa	0.13640204
53	0x3dc2ba7f	0.095082276
54	0x3ce48248	0.027894154
55	0x3e011e02	0.12609103
56	0xbd830c60	-0.06398845
57	0xbe14f271	-0.14545609
58	0x3d72390a	0.059136428
59	0x3e0f636a	0.14002767
60	0xbc7003d8	-0.014649354
61	0xbdaaaedd	-0.08334134
62	0x3d89843f	0.06714677
63	0x3dc913fa	0.09818263
64	0xbce5bea5	-0.028045008
65	0xbd6dfaca	-0.0581005
66	0x3d68d1c4	0.056840673
67	0xbd0932d2	-0.03349573
68	0x3dcc0d6f	0.099635
69	0x3dafdf56	0.0858752
70	0x3c103e6d	0.008803946
71	0x3d3081b2	0.043092437
72	0x3d435cbc	0.04769586
73	0x3d7b8693	0.061407637
74	0x3c67cbb0	0.014147684
75	0xbdcf500e	-0.10122691
76	0x3e0e014c	0.13867682
77	0xbd432693	-0.04764421
78	0xbd125589	-0.035726104
79	0x3e0d06ca	0.13772121
80	0xbdaaa346	-0.08331923
81	0xbe13765a	-0.14400616
82	0x3d310390	0.043216288
83	0xbd2fa3d5	-0.04288085
84	0xbc222b8c	-0.009898078
85	0x3c96eb78	0.018422827
86	0x3e2f0deb	0.17095153
87	0xbc397174	-0.011318553
88	0x3d933881	0.07188512
89	0x3dda9fde	0.106750235
90	0xbd04b487	-0.032398727
91	0x3dcece1f	0.10097908
92	0xbdc21ddf	-0.09478354
93	0x3dfd4e3a	0.12368436
94	0xbe72ec55	-0.23722966
95	0x3e195c53	0.14976625
96	0xbbd11d16	-0.006381641
97	0xbcd8b75f	-0.026454626
98	0xbd80cb39	-0.06288762
99	0xbe2267a5	-0.1585985
100	0xbd3a8798	-0.04553947
101	0xbd110527	-0.035405304
102	0x3d93ef41	0.072233684
103	0xbdaeda85	-0.08537773
104	0xbc2be3f4	-0.01049136
105	0xbd0b8365	-0.034060854
106	0xbd11ea71	-0.03562397
107	0x3d0f3a42	0.03496767
108	0x3cf45b03	0.029828554
109	0xbb8f73af	-0.004377804
110	0x3d74ac5a	0.05973468
111	0x3d76f1ac	0.06028907
112	0x3e0b7d43	0.13622002
113	0x3d3b23d5	0.04568847
114	0xbda7864b	-0.08179911
115	0xbd90089c	-0.07032892
116	0x3e007d1d	0.12547727
117	0xbd10fa57	-0.035394993
118	0xbd89dd08	-0.067316115
119	0x3ce20c5a	0.02759378
120	0xbdca4957	-0.0987727
121	0x3e447a2c	0.1918723
122	0xbc8f7825	-0.017513344
123	0xbd2ef574	-0.04271455
124	0x3db0e311	0.086370595
125	0x3df6e8be	0.12056111
126	0x3dabc05a	0.083862975
127	0x3d1dbbe9	0.038509283
128	0x3dc90285	0.09814934
129	0x3d72a6fd	0.059241284
130	0xbd562e91	-0.052290503
131	0x3bb01439	0.0053735045
132	0x3ddb6e20	0.10714364
133	0xbe0fa526	-0.14027843
134	0xbe20525a	-0.15656415
135	0x3de0d914	0.10978904
136	0xbd8f0f00	-0.06985283
137	0xbdb27e6d	-0.0871552
138	0xbe3a005c	-0.181642
139	0xbbcb9e4f	-0.00621394
140	0xbd9b834d	-0.07593403
141	0x3de8e769	0.11372263
142	0x3e007791	0.12545611
143	0x3d363e9a	0.044493295
144	0x3df70eb2	0.1206335
145	0x3d4db802	0.05022431
146	0xbdb091b5	-0.086215414
147	0x3e0f6c55	0.14006169
148	0x3d3e1506	0.04640677
149	0xbe5df717	-0.21676289
150	0x3e3980e7	0.18115579
151	0x3ccaeca3	0.02477104
152	0x3d1ca603	0.03824426
153	0x3e282055	0.16418584
154	0xbdfffbec	-0.12499222
155	0xbdc80fea	-0.0976866
156	0xbb85ca56	-0.004082958
157	0x3d4f3e8f	0.05059677
158	0xbc59a123	-0.013283047
159	0xbd2cf146	-0.042222284
160	0x3d5f6a92	0.054544993
161	0xbcbf6308	-0.023362651
162	0xbda3d911	-0.080003865
163	0xbdc80b05	-0.09767727
164	0xbd8bb55c	-0.06821701
165	0x3d2c9a4c	0.042139336
166	0xbe1dda1d	-0.15415235
167	0xbcc9f42b	-0.024652561
168	0xbd0b3486	-0.033985637
169	0x3e7e3180	0.2482357
170	0x3c9f03e8	0.019411042
171	0x3ce567c9	0.02800359
172	0xbb64ad6e	-0.0034893411
173	0x3e0aab08	0.13541806
174	0xbdb232dc	-0.08701107
175	0x3dbc3fc2	0.09191848
176	0xbc635823	-0.013875994
177	0xbcc524ff	-0.024065493
178	0xbd3a0125	-0.045411248
179	0x3d1c23df	0.038120147
180	0x3c5f5aef	0.01363252
181	0x3d7bda1e	0.06148731
182	0xbce4e004	-0.02793885
183	0xbdc3cf6f	-0.09561049
184	0xbda0fcd5	-0.07860724
185	0x3a7ec531	0.0009718715
186	0x3de865b7	0.113475256
187	0x3da0c6c3	0.07850411
188	0x3dba25ad	0.09089217
189	0x3dc1ba3f	0.09459352
190	0xbe0b68e1	-0.13614227
191	0xbde5c9f8	-0.11220163
192	0xbd9cfbd4	-0.0766522
193	0x3ae3e900	0.0017388165
194	0xbcd56202	-0.02604771
195	0xbc2dd8c1	-0.01061076
196	0xbd6cf320	-0.05784905
197	0xbd668a7c	-0.056284413
198	0xbe2d0a80	-0.16898537
199	0xbdbdb386	-0.09262757
200	0x3ddf07a9	0.10890133
201	0xbe283201	-0.16425325
202	0x3d9bd6de	0.07609342
203	0xbd93b27f	-0.0721178
204	0xbe05248a	-0.1300222
205	0xbded3be0	-0.11583686
206	0x3e4a0d1a	0.1973156
207	0x3db1319b	0.086520396
208	0xbe12671e	-0.14297149
209	0x3e3ed7c5	0.18636997
210	0x3d93fe83	0.07226279
211	0xbbc65e59	-0.0060537276
212	0x3e08ae5f	0.13347767
213	0xbdc55ca5	-0.09636811
214	0xbd84a21f	-0.06476235
215	0xbdea1e18	-0.11431521
216	0xbe292e08	-0.16521466
217	0xbcc0c772	-0.023532603
218	0xbdb3a55e	-0.08771776
219	0x3d998177	0.074953966
220	0xbb8ddc52	-0.0043292427
221	0xbcca2a02	-0.024678234
222	0xbd8a5a64	-0.06755522
223	0x3d7a3377	0.061084237
224	0x3d816d00	0.06319618
225	0xbdd53228	-0.10409957
226	0x3e4d7be3	0.2006679
227	0x3d7d2d06	0.061810516
228	0x3c86d02f	0.016456692
229	0xbe014ed0	-0.12627721
230	0x3d19116f	0.03737014
231	0x3dbbf43f	0.091774456
232	0x3cb989b4	0.02264867
233	0xbd5a65e8	-0.05331984
234	0x3bfad213	0.0076544373
235	0x3d084e89	0.033278022
236	0x3d9687b5	0.07350103
237	0x3d7f97cb	0.06240062
238	0x3cb78806	0.022403728
239	0xbde2c86a	-0.11073382
240	0x3dad98a1	0.08476377
241	0x3d97f848	0.07420403
242	0xbd1a9c07	-0.037746456
243	0xbce12a35	-0.027485946
244	0x3d037254	0.032091454
245	0x3cb65d02	0.022261146
246	0x3dbce796	0.09223859
247	0xbd4c8975	-0.049935777
248	0xbd5613c1	-0.052264933
249	0x3d6212ec	0.055193827
250	0xbdb5a097	-0.08868521
251	0x3ce5e627	0.028063847
252	0xbd91484e	-0.07093869
253	0xbd0b1ff5	-0.033966023
254	0x3e00c849	0.12576403
255	0xbdaa0f6e	-0.08303724

network_body._body_endoder.seq_layers.2.bias f4 [128]
0	0x00000000	0.0
1	0x00000000	0.0
2	0x00000000	0.0
3	0x00000000	0.0
4	0x00000000	0.0
5	0x00000000	0.0
6	0x00000000	0.0
7	0x00000000	0.0
8	0x00000000	0.0
9	0x00000000	0.0
10	0x00000000	0.0
11	0x00000000	0.0
12	0x00000000	0.0
13	0x00000000	0.0
14	0x00000000	0.0
15	0x00000000	0.0
16	0x00000000	0.0
17	0x00000000	0.0
18	0x00000000	0.0
19	0x00000000	0.0
20	0x00000000	0.0
21	0x00000000	0.0
22	0x00000000	0.0
23	0x00000000	0.0
24	0x00000000	0.0
25	0x00000000	0.0
26	0x00000000	0.0
27	0x00000000	0.0
28	0x00000000	0.0
29	0x00000000	0.0
30	0x00000000	0.0
31	0x00000000	0.0
32	0x00000000	0.0
33	0x00000000	0.0
34	0x00000000	0.0
35	0x00000000	0.0
36	0x00000000	0.0
37	0x00000000	0.0
38	0x00000000	0.0
39	0x00000000	0.0
40	0x00000000	0.0
41	0x00000000	0.0
42	0x00000000	0.0
43	0x00000000	0.0
44	0x00000000	0.0
45	0x00000000	0.0
46	0x00000000	0.0
47	0x00000000	0.0
48	0x00000000	0.0
49	0x00000000	0.0
50	0x00000000	0.0
51	0x00000000	0.0
52	0x00000000	0.0
53	0x00000000	0.0
54	0x00000000	0.0
55	0x00000000	0.0
56	0x00000000	0.0
57	0x00000000	0.0
58	0x00000000	0.0
59	0x00000000	0.0
60	0x00000000	0.0
61	0x00000000	0.0
62	0x00000000	0.0
63	0x00000000	0.0
64	0x00000000	0.0
65	0x00000000	0.0
66	0x00000000	0.0
67	0x00000000	0.0
68	0x00000000	0.0
69	0x00000000	0.0
70	0x00000000	0.0
71	0x00000000	0.0
72	0x00000000	0.0
73	0x00000000	0.0
74	0x00000000	0.0
75	0x00000000	0.0
76	0x00000000	0.0
77	0x00000000	0.0
78	0x00000000	0.0
79	0x00000000	0.0
80	0x00000000	0.0
81	0x00000000	0.0
82	0x00000000	0.0
83	0x00000000	0.0
84	0x00000000	0.0
85	0x00000000	0.0
86	0x00000000	0.0
87	0x00000000	0.0
88	0x00000000	0.0
89	0x00000000	0.0
90	0x00000000	0.0
91	0x00000000	0.0
92	0x00000000	0.0
93	0x00000000	0.0
94	0x00000000	0.0
95	0x00000000	0.0
96	0x00000000	0.0
97	0x00000000	0.0
98	0x00000000	0.0
99	0x00000000	0.0
100	0x00000000	0.0
101	0x00000000	0.0
102	0x00000000	0.0
103	0x00000000	0.0
104	0x00000000	0.0
105	0x00000000	0.0
106	0x00000000	0.0
107	0x00000000	0.0
108	0x00000000	0.0
109	0x00000000	0.0
110	0x00000000	0.0
111	0x00000000	0.0
112	0x00000000	0.0
113	0x00000000	0.0
114	0x00000000	0.0
115	0x00000000	0.0
116	0x00000000	0.0
117	0x00000000	0.0
118	0x00000000	0.0
119	0x00000000	0.0
120	0x00000000	0.0
121	0x00000000	0.0
122	0x00000000	0.0
123	0x00000000	0.0
124	0x00000000	0.0
125	0x00000000	0.0
126	0x00000000	0.0
127	0x00000000	0.0

action_model._discrete_distribution.branches.0.weight f4 [7, 128]
0	0xbc532c40	-0.012888968
1	0xbbc8b96f	-0.006125621
2	0x3c8ecfb3	0.017433023
3	0xba883267	-0.0010390998
4	0xbbc713ed	-0.0060753734
5	0xbbee8358	-0.007278841
6	0x3b2b0cb5	0.0026100103
7	0xbae1855f	-0.0017205885
8	0x3c285edc	0.0102765225
9	0xbb21f8c6	-0.002471493
10	0x3b935a13	0.0044968217
11	0xbbbfa06c	-0.005847981
12	0xbc30c693	-0.010789531
13	0xba0203eb	-0.000495969
14	0x3b970081	0.0046082144
15	0x3c176e26	0.00924257
16	0xbc235ce6	-0.009970879
17	0x3b7415e5	0.0037244495
18	0xbb2b61bc	-0.0026150784
19	0x3b732c13	0.0037105128
20	0x3be19edb	0.006885392
21	0xbc3e391f	-0.011610298
22	0xbbe3e335	-0.0069545754
23	0x3c636af0	0.013880476
24	0x3c1f3cbb	0.009719069
25	0x3b6f60a2	0.0036526104
26	0x3c25706b	0.010097603
27	0x3b04f356	0.002028664
28	0xbb9d349e	-0.004797532
29	0x3c53f30d	0.012936366
30	0xb9f70fb8	-0.00047123223
31	0x3bb22618	0.00543667
32	0x3c69b9a2	0.01426545
33	0xba5f9a08	-0.00085297273
34	0xbc0a0fdc	-0.008426633
35	0xbca91952	-0.020641956
36	0xbcbaff28	-0.022826746
37	0x3c314839	0.010820442
38	0x3c0eeebf	0.008723914
39	0xbb7c611a	-0.0038510025
40	0x3c013b5b	0.007887687
41	0xbabba4ef	-0.0014316122
42	0x3b24350f	0.002505604
43	0xbc56745f	-0.0130892685
44	0x38c07eab	9.178867e-05
45	0x3c9286b2	0.017886493
46	0xbc6a0dd8	-0.014285527
47	0x3c07de30	0.00829272
48	0xbc3d7826	-0.01156429
49	0xbcd6fa20	-0.026242316
50	0x3c2c30d7	0.010509691
51	0x3c85415c	0.016266517
52	0xbc2c26c1	-0.0105072865
53	0xbbe0eee2	-0.0068644146
54	0x3b891493	0.004183361
55	0xbbd69937	-0.0065490264
56	0xba3c11a4	-0.00071742595
57	0x3c201093	0.009769577
58	0xbc1eb1d9	-0.009685957
59	0x3b794e2f	0.0038040986
60	0x3bc8381b	0.006110204
61	0x3b7abf7a	0.0038261102
62	0x3c0e78af	0.008695765
63	0xbc113f74	-0.008865226
64	0xbc9d0cbc	-0.019171111
65	0xbc083015	-0.008312245
66	0xbc3ce7e6	-0.011529898
67	0x3c172dbc	0.0092272125
68	0xbbd0fd78	-0.006377872
69	0xbbeed035	-0.007288004
70	0x3a6a78aa	0.0008944372
71	0x3c0f823f	0.00875908
72	0xbb80f7d4	-0.0039357934
73	0xb99765a7	-0.000288767
74	0x3b4b023b	0.0030976671
75	0x3c38bab6	0.011274984
76	0x3c2c7598	0.010526083
77	0xbaffd94a	-0.0019519713
78	0xbba03b17	-0.0048898566
79	0xbb897ec9	-0.004196022
80	0xbb4e85b5	-0.00315128
81	0x3b99b8c5	0.0046912157
82	0xbc2bd0bd	-0.010486779
83	0x3c168d52	0.009188967
84	0xbbae6078	-0.0053215586
85	0x3ab456f3	0.0013758823
86	0xbc75acaf	-0.014994784
87	0x3b28fdf3	0.002578613
88	0x3c0dc1fe	0.008652208
89	0x3b348ef7	0.0027551034
90	0xba765dfb	-0.00093981595
91	0xbc6cde05	-0.01445723
92	0xbc48c00c	-0.012252819
93	0xba027672	-0.0004976756
94	0x3c927102	0.017876152
95	0xbc171bb1	-0.009222911
96	0x3c33926f	0.010960205
97	0x3b02b540	0.001994446
98	0xbbfc6905	-0.007702949
99	0x3bf1a060	0.0073738545
100	0x3aae312f	0.0013289804
101	0x38cadf65	9.673721e-05
102	0x3c1d94f6	0.009618035
103	0xbc75517f	-0.014973043
104	0xbc94bcfc	-0.018156521
105	0xbbcfa642	-0.006336958
106	0x3c196455	0.0093623
107	0xbba25a1b	-0.004954589
108	0xbb29336a	-0.0025817999
109	0x3c025f54	0.007957298
110	0x3bc925d2	0.0061385417
111	0x3b8be999	0.0042697904
112	0xbc5030a7	-0.012706912
113	0x3b6515b2	0.0034955558
114	0x3b45b82b	0.0030169587
115	0xbc80cbfb	-0.015722265
116	0x3be6b080	0.0070400834
117	0x3912d6ba	0.00014003637
118	0x3c3d95cc	0.011571359
119	0x3a8fe095	0.0010976965
120	0x3c04abf3	0.0080976365
121	0xbc82baa2	-0.015958134
122	0xbc1ba93e	-0.0095008
123	0xbc61816f	-0.0137637695
124	0xb9c88114	-0.00038243143
125	0x3c041523	0.00806168
126	0xb9b6d8d7	-0.00034875303
127	0x3bb25743	0.0054425313
128	0x3c1039e7	0.0088028675
129	0x3ab0643d	0.0013457608
130	0xba15b379	-0.00057106424
131	0xbc186913	-0.009302395
132	0x3c405417	0.011738799
133	0xbc25d0eb	-0.010120611
134	0xbaabb910	-0.0013101418
135	0xbc1e7a38	-0.009672694
136	0x3b8e47ff	0.0043420787
137	0xbc9da2f6	-0.019242745
138	0x3c84d4f4	0.016214825
139	0xbc3c13fb	-0.011479373
140	0xbb82ff9c	-0.003997756
141	0xbbe2648a	-0.006908958
142	0xb9e61485	-0.00043884307
143	0xbb92092c	-0.00445666
144	0xbc450bb3	-0.012026715
145	0xba1a195b	-0.0005878412
146	0x3c1b2476	0.009469142
147	0x3a5dfc2a	0.00084680563
148	0x3ba82805	0.005131724
149	0x3bc9025b	0.006134314
150	0xbc352c35	-0.011057903
151	0x3c7064f3	0.014672506
152	0xbbaf7c08	-0.005355362
153	0x3bd44783	0.0064782514
154	0x3c0d78af	0.00863473
155	0x3c73d190	0.014881507
156	0x3c0a6c8d	0.008448732
157	0xbc3d97d5	-0.011571844
158	0x3bdb5093	0.006692955
159	0x3bf81be8	0.007571686
160	0x3bb6b541	0.0055758064
161	0x3b0f0f9d	0.0021829375
162	0x3bf02537	0.007328655
163	0x3c3f699c	0.011682894
164	0x3c268c5d	0.010165301
165	0xbb6b13f3	-0.0035870045
166	0x3c7fb305	0.015606646
167	0x3c446f03	0.011989358
168	0x3b415cc3	0.0029504753
169	0xbc258b21	-0.010103972
170	0xbaa02fcb	-0.0012221275
171	0x3c372ccf	0.011180117
172	0xbb201aa5	-0.0024429944
173	0x3b16b759	0.0022997467
174	0xba2731d0	-0.0006377967
175	0x3c0446f7	0.00807356
176	0x3c2b57d0	0.010457948
177	0x3c5fd36b	0.013661246
178	0x3a28de45	0.0006441812
179	0xbaa1cb20	-0.0012343861
180	0x3c4d6200	0.012535572
181	0x3bb01f08	0.005374793
182	0xbbc7e881	-0.0061007147
183	0xbc0cfcfd	-0.008605239
184	0x3b4b8b11	0.0031058232
185	0x3b2053f0	0.0024464093
186	0xbc1de923	-0.009638104
187	0x3b38da85	0.002820642
188	0xbb5877af	-0.0033030321
189	0xbcb04a6e	-0.021519866
190	0x3b5d3e0f	0.0033758914
191	0xbc188927	-0.009310043
192	0xbc09e046	-0.008415287
193	0x3b6f4655	0.0036510427
194	0xbc222e4b	-0.009898732
195	0x3a840728	0.0010072934
196	0xbd10f492	-0.03538949
197	0x3c1098f2	0.0088255275
198	0xbb4af538	-0.0030968916
199	0xbbacae34	-0.00526979
200	0x3b99c325	0.0046924525
201	0xbc26a0f3	-0.010170209
202	0x3c8b9b79	0.017041909
203	0xbb5e9dfd	-0.003396868
204	0xbc01feeb	-0.007934312
205	0x3b042572	0.002016392
206	0xbb3126b7	-0.0027031132
207	0x3b98700f	0.0046520303
208	0xbbd65a83	-0.0065415516
209	0xbc52da0b	-0.012869368
210	0x3b22003b	0.0024719376
211	0x3a9650d7	0.0011468184
212	0xbbea98ef	-0.0071593444
213	0xbaf9cb5b	-0.0019057797
214	0xbba94ce0	-0.005166635
215	0xbadb92dd	-0.0016752143
216	0xb9ed30c8	-0.00045240507
217	0x3b83e2fe	0.0040248623
218	0x3c06fa60	0.008238405
219	0xbc1b8207	-0.00949145
220	0x3ca366d7	0.019946499
221	0xbb8f26b9	-0.00436863
222	0xbb10773f	-0.0022043732
223	0x3b83c167	0.004020858
224	0xbc16a208	-0.009193905
225	0x3b4ac647	0.0030940936
226	0x3b33a166	0.0027409433
227	0x3c92c530	0.017916292
228	0x39973549	0.00028840665
229	0x3c522a95	0.012827535
230	0xbbc1edfb	-0.005918262
231	0x3bfa8faf	0.007646523
232	0xbb16e5a7	-0.0023025067
233	0xbaee3edf	-0.0018176696
234	0x39b5bd39	0.00034663992
235	0xbc5b655b	-0.013390864
236	0x3b11e2f7	0.0022260526
237	0x3c40f344	0.011776749
238	0x3c286cf2	0.010279881
239	0x3a82944a	0.0009962406
240	0x3c0b03a8	0.008484758
241	0x3bd10a48	0.0063793994
242	0x3be7f45b	0.00707869
243	0x3abf19af	0.0014579798
244	0xbb28d587	-0.0025762038
245	0xbc05cc30	-0.008166358
246	0x3b88a503	0.0041700616
247	0xba4b4985	-0.0007754791
248	0xbba4d797	-0.005030583
249	0xbb0ae1e8	-0.002119178
250	0xbb952936	-0.004552032
251	0x3b554c1d	0.0032546588
252	0x3c20bbe2	0.00981042
253	0x3b30a35a	0.0026952834
254	0x3bab3ddb	0.0052258796
255	0x3c08e4e6	0.008355355

action_model._discrete_distribution.branches.0.bias f4 [7]
0	0x00000000	0.0
1	0x00000000	0.0
2	0x00000000	0.0
3	0x00000000	0.0
4	0x00000000	0.0
5	0x00000000	0.0
6	0x00000000	0.0
