Source/results/WeightAgent_Training/WeightAgent_Training/WeightAgent_Training-16448.pt (torch, 926564 bytes, 33 tensors)

network_body._body_endoder.seq_layers.0.weight f4 [128, 163]
00000000: c7f9 a73b 694f 3c3d 47fe 2abd 91d0 8ebd
00000010: 18f7 813c 4294 333d dce0 4d3b e811 e03c
00000020: 9a89 bfbd 48b3 c23d a51d d73d df66 4d3d
00000030: 2d4b c3bd 144b cd3d e5ab 4dbd b0ee a13d
00000040: 5e44 1bbc 5e14 8d3d 3148 163e 0ce5 063d
00000050: 410b f6bc 0c97 9cbd d236 e9bc 9447 9c3c
00000060: 1f93 b6bc 92f5 81bd f6a3 4b3d 4f9a 64bd
00000070: 3cc9 c63d 7756 dcbd 80b8 a73d 7c35 adbc
00000080: b0b4 31bc e62b 10be 9fbd b1bd 62ae 4fbd
00000090: db3c dfbc 38d8 003e c9d7 9a3d 21b8 c43c
000000a0: 8a44 1a3d 8afb 0dbe 1e9d b2bd d1fa d83b
000000b0: cac3 81bd 12fc 9c3d 7b03 05be 87f6 8a3b
000000c0: b9d0 913d 68d4 2abe 62f1 653d 1bd2 dc3c
000000d0: 9e0e b63d 425b f53c 8727 fdbd 3c38 183d
000000e0: 1fe9 2cbe eef8 2cbe 1349 a03d dea4 423d
000000f0: 0233 72bc bb40 c63d 48d4 97bd cc1f dfbd
00000100: d30e c53d b0b1 563d cfd4 7ebd 0e36 96bc
00000110: 12eb 3b3c faa7 83bd 8f45 64bd 0b88 07be
00000120: 5783 76bd d2c4 f23d c7c7 49bd 635d ed3b
00000130: 130b c4bd 6935 3bbd 0ff8 843d 10aa 12be
00000140: 8e0f 51bc 18a0 a93d aff7 363e 46cf a7bc
00000150: 2544 96bd 0dc9 4b3d 87b1 d83c 9ac5 65bc
00000160: 1a93 273d 3c9a 443b 61f1 863d e55c f43d
00000170: c9e9 0dbd a560 02bd d195 de3d 43ab 103d
00000180: 5e1f 733c c3f8 463d c4b8 9abd d049 aabd
00000190: d8a7 223c b19c c5bd abad 27bd 5482 ecbc
000001a0: 8657 1c3b 70cd d8bc d62d 8d3d 57ca 38bc
000001b0: d619 d7bd e428 81bc 0cb6 883c b140 bc3c
000001c0: 2ba0 a6bd 7e7e b2bc a5a8 073e 2cc5 f1bc
000001d0: 4e47 d3bc e1a5 b7ba bcb5 113e 5b19 d0bd
000001e0: 5249 8abd c9b8 013e 088b b43c c960 273d
000001f0: 04d9 163d 0dbe b83d becd 973d bdcf 0cbd
00000200: a811 06be 9c85 4abd 4631 db3d 725a 1abd
00000210: e31b 363d d241 bf3d 9764 683d 0f2f ca3d
00000220: 5bdc fb3d 5aa3 cf3c 8e7d 0e3e d129 1fbd
00000230: 7277 5dbd 27a8 b03d fb02 e6b9 48b1 6abd
00000240: 0fed 7fbd 21bd 39be 0e08 ecbc 1f37 b7bc
00000250: 63d5 47bd ce3d 85bd 4415 443c 2553 273d
00000260: ee41 b03d 92cc 833d fb2f c0bd 5b31 9f3d
00000270: ce55 313d 924b 343d 6eb7 df3c e6ad 8f3c
00000280: 7041 6cbd 37f5 073c 8d44 b83d 9a37 a2bd
00000290: d4c8 da3d 6006 c83b 0e97 f43c c140 63bc
000002a0: a551 3d3e dd83 62bd 50af c5bc a81d fb3d
000002b0: e14b 7fbd d5c9 133d 477b 30be f8a8 6b3c
000002c0: 8ea2 74bd c2b2 d5bc 0bc0 973d b33e a73d
000002d0: f3cb 313d 9879 163d f981 fb3b 1045 1e3d
000002e0: b73a a4bd fdde 3fbe 4976 c2bd f41e 123e
000002f0: 06d8 cfbc ce3e c5bc 7b73 143b 0138 713d
00000300: d42b cabd 600b 67bd 5b54 08bc f06e 213d
00000310: 587c eb3d d80b ec3d 0639 9ebd 8568 663d
00000320: 2a71 ecbb 7c64 c73c 3e0a 033d 27f0 04bd
00000330: 5f3c bf3c 5b8b f43d 7f1c 3dbd b823 b1bd
00000340: dca2 39be eaa7 93bd d137 eb3d 04b7 a93b
00000350: 08c5 dcbd c91f 303d 0225 e0bd bbc0 2bbc
00000360: b04b d9bc 16ee ac3d e4b2 89bb 5a3f 07be
00000370: f67a 343d dee0 1a3d 02d3 983d ff47 06bd
00000380: 2f24 97bc d551 86bd cbd5 14be 7fd6 053d
00000390: b20a efbb faf6 fc3d c88c 303e 8d8b dbbc
000003a0: 7e8d e93c bea6 053d 64bd 1abe 57a0 113d
000003b0: 4c34 c73d 7e48 ffbd 3def 89bd 051c 823d
000003c0: 335e 9f3d f1b5 7dbd 4a21 0cbb 5116 bb3b
000003d0: ae1b 8f3d ab3a 1e3c e643 dd3c eab5 34bd
000003e0: cbae ef3c 6fcf 0cbe df73 c3bd d8ce f3bd
000003f0: 8805 a63d 1be5 b9bc 0c25 c93d 8f88 50bd
0.0051262113 0.04597417 -0.041746404 -0.06973375 0.015864894 0.04384256 0.0031414544 0.027352288
-0.09352417 0.095068514 0.10503701 0.050146934 -0.09535823 0.10024086 -0.05021276 0.07906854
-0.009476749 0.0688865 0.14675976 0.03293328 -0.030034663 -0.076459974 -0.028468523 0.0190771
-0.02228695 -0.06345667 0.049716912 -0.055811223 0.09706351 -0.10758679 0.081894875 -0.021143667
-0.010846302 -0.14079246 -0.086787455 -0.050703414 -0.027250698 0.12582481 0.07560689 0.02401358
0.03766302 -0.13865486 -0.08721374 0.0066216965 -0.06336172 0.07665266 -0.12989609 0.004240814
0.07119889 -0.16682589 0.056138404 0.026955655 0.08889507 0.029950742 -0.12361055 0.037163004
-0.16885804 -0.16891834 0.07826438 0.04752051 -0.014782669 0.09680315 -0.07413536 -0.10894737
0.09621968 0.05241555 -0.06221467 -0.018336322 0.011469619 -0.06428523 -0.0557304 -0.1323549
-0.06018385 0.11853947 -0.04926279 0.0072437986 -0.09572425 -0.045705233 0.06492626 -0.14322686
-0.012760056 0.082824886 0.17867921 -0.020484578 -0.07337216 0.049752284 0.02645184 -0.014024163
0.04091177 0.0029999157 0.06589008 0.11931781 -0.034646783 -0.03183045 0.10868419 0.035319578
0.0148390215 0.04857708 -0.075547725 -0.0831486 0.009927712 -0.09649027 -0.040937107 -0.028870739
0.002385588 -0.026465148 0.06893508 -0.01127871 -0.10502975 -0.015766568 0.01668837 0.022980066
-0.08136018 -0.021788832 0.13247927 -0.029512964 -0.025790837 -0.0014011228 0.14229482 -0.10161086
-0.06752266 0.12668146 0.022038952 0.040863786 0.036828056 0.09020624 0.07412289 -0.034377802
-0.13092673 -0.049443826 0.107027575 -0.03768391 0.04446019 0.09338726 0.056736555 0.09872257
0.12297889 0.025346447 0.13915083 -0.03885824 -0.05406899 0.086258225 -0.0004387124 -0.057297975
-0.062481936 -0.18138553 -0.028812435 -0.022365151 -0.048787486 -0.06505929 0.011967961 0.040850777
0.08606325 0.06435503 -0.093841515 0.07773086 0.04329472 0.044017382 0.027309146 0.017538976
-0.057679594 0.00829821 0.0899745 -0.079207614 0.10682836 0.0061042756 0.029857185 -0.013870419
0.18488176 -0.055301536 -0.024131447 0.12261516 -0.062328223 0.036081154 -0.17234527 0.014383547
-0.059725337 -0.026086215 0.07409676 0.08166256 0.04340739 0.036737055 0.007675406 0.038640082
-0.080190115 -0.18737407 -0.09495217 0.1426962 -0.025371563 -0.0240778 0.002265184 0.0588913
-0.09871641 -0.056407332 -0.008320893 0.03941244 0.11498326 0.115256965 -0.0772572 0.05625202
-0.0072156386 0.024339907 0.03199219 -0.03245559 0.023344217 0.119406424 -0.046169754 -0.08649391
-0.18128532 -0.072097614 0.114852555 0.005179288 -0.10779768 0.042999063 -0.10944559 -0.010482962
-0.026525348 0.08443849 -0.0042022336 -0.1320776 0.044062577 0.037812106 0.074621215 -0.032783505
-0.01844987 -0.06558577 -0.1453468 0.032675263 -0.007294976 0.123517945 0.17241204 -0.026799941
0.028509852 0.03262972 -0.1511131 0.035553303 0.09726772 -0.12464999 -0.06735084 0.063530006
0.07781639 -0.06194109 -0.0021382147 0.0057094474 0.06987701 0.009657542 0.027009916 -0.0441188
0.029258152 -0.13751005 -0.09543585 -0.11904687 0.08106524 -0.022692254 0.09821519 -0.050911482

network_body._body_endoder.seq_layers.0.bias f4 [128]
00000000: 8dcd d1ba 747f a6ba fc78 043b b69e 11bb
00000010: 33a0 5a3a b47b bf39 bee1 84b9 b3ad 02ba
00000020: c335 adb9 6e8b 773a 905c 32b7 d979 0b3b
00000030: 2cbf 363b 402e 603b 702b b6bb f532 00bb
00000040: 5965 d53b d956 243b 5322 913b 26cf 453b
00000050: ec97 7d39 e296 ccbb e6b4 1f3b 1d2b 2cbb
00000060: 55e7 8e3b 5e85 a7bb 835f 8fba 5950 9dbb
00000070: a5b9 d539 b2cf b43a ce8f 9939 f2a9 58b9
00000080: 1dc3 27bb 1ed1 75ba bfa0 033a 72ef 0bba
00000090: 5c37 b2b7 5995 14bb 950b 603a 0098 cbba
000000a0: e20f a8ba 4456 0b3b 9a08 2f3b f11b 8339
000000b0: 054a 2db9 5451 b3bb fffc dcba 816f c6b9
000000c0: 5213 b1bb 946d e539 6881 d8bb 52d0 0fb9
000000d0: ccc2 a5ba db47 533a 6db6 4dba 98cd 153a
000000e0: bf73 ebba 43f4 e7ba 45db 68bb 6a53 673b
000000f0: 6d95 8b3b 77f8 85ba 50fb d1b8 64ef 0dbb
00000100: 8401 daba 89c7 1f3a 583c 463b 7d2d 1db8
00000110: f558 2c3b f13e 90ba 66be 8c3b d584 0f3b
00000120: b35b 963b 81a2 983b 60d9 a035 a003 9fb9
00000130: 15cb 21bb 2b4f 8cba 0aea b23a 81bd 133b
00000140: 6892 973a c561 ac39 3d1a 88bb f9e3 0b3b
00000150: b9c9 14ba 8bcf cc3a fd5c 0c38 6c26 98ba
00000160: db46 053b 4845 2ebb 39fd 76ba e7bb 913b
00000170: 9a40 883a 5009 fc38 a28e b1bb ee32 04ba
00000180: 2e27 bd3a fcf5 00bb aa87 29b9 a57b 743a
00000190: f8a7 a43a 101a 88bb 7e10 273b 46ac 8439
000001a0: e2df 8e3b 62fa 413a c265 993a cc37 e839
000001b0: 75ad 193b 2404 103a 609e 0439 5c1c eaba
000001c0: ee74 103b 1122 b2ba 2b47 663b 4eaf b5ba
000001d0: 4d4e 8ebb b3c5 0fba 77c9 40bb dde1 62bb
000001e0: f088 40bb 2c35 02bb 8239 76b8 e583 c1b8
000001f0: 2a08 333b 02af ad3a fca8 5cbb 1701 08ba
-0.0016006693 -0.0012702779 0.0020213714 -0.0022219843 0.00083399116 0.00036522525 -0.00025345193 -0.00049849896
-0.00033037187 0.0009443079 -1.0631178e-05 0.0021282344 0.0027884943 0.0034207255 -0.0055593774 -0.0019561623
0.0065123257 0.002507618 0.0044291406 0.0030183285 0.00024184556 -0.0062435726 0.0024369298 -0.0026270815
0.004361073 -0.005112334 -0.0010938499 -0.004800838 0.00040764842 0.0013794808 0.00029289577 -0.00020662675
-0.0025598474 -0.0009377169 0.00050212065 -0.00053381093 -2.1245032e-05 -0.0022672026 0.0008546648 -0.001553297
-0.0012822116 0.0021261135 0.0026708008 0.00025007085 -0.0001652614 -0.0054723416 -0.0016860067 -0.0003784858
-0.0054039145 0.00043759926 -0.0066072233 -0.00013715148 -0.0012646555 0.00080597185 -0.0007847313 0.0005714535
-0.0017963572 -0.0017696697 -0.0035531085 0.0035297521 0.0042597563 -0.0010221143 -0.00010012707 -0.002165758
-0.0016632532 0.00060951017 0.003024837 -3.747408e-05 0.002629814 -0.0011005086 0.004295158 0.0021899242
0.004588568 0.004658044 1.1984193e-06 -0.00030329544 -0.0024687697 -0.0010704746 0.0013650071 0.0022543373
0.0011564018 0.0003287924 -0.0041535185 0.00213456 -0.0005675811 0.0015625817 3.3465203e-05 -0.001160813
0.0020336423 -0.0026591588 -0.00094218884 0.0044474485 0.0010395229 0.00012018031 -0.0054186145 -0.00050429895
0.0014431232 -0.0019677868 -0.00016167635 0.0009326286 0.0012562266 -0.0041534975 0.0025492008 0.00025305356
0.004360185 0.00073996757 0.00117033 0.0004429206 0.0023449336 0.0005493781 0.000126475 -0.0017861235
0.0022042352 -0.0013590475 0.0035137634 -0.0013861449 -0.0043428303 -0.00054844766 -0.0029416957 -0.0034619488
-0.0029378496 -0.0019868119 -5.870453e-05 -9.2275244e-05 0.0027318099 0.0013251009 -0.0033670058 -0.00051881507

network_body._body_endoder.seq_layers.2.weight f4 [128, 128]
00000000: f1ec a43d 9665 233d a5d5 c2bd f5f1 3a3d
00000010: ff56 bd3d 2e16 3a3e ec72 3b3d 0804 533d
00000020: 20c9 d2bd ff5e cebc 711c e0bd 9410 b6b9
00000030: 4ec9 98bb e8fe d2bc f787 3e3d 5626 4e3c
00000040: 83c3 9dba 36d5 3d3e 10ba 9ebb f324 f43d
00000050: 5263 723d 7283 cbbb c999 cc3d a632 603e
00000060: 5362 5c3d 7c14 803d bf07 733d 86a0 fcbd
00000070: d441 30be 5f18 6b3e d6b8 12be 0333 4cbb
00000080: 0249 7e3d 6a90 9c3d 916e 303d 879a 4ebb
00000090: b6a0 f2bd e7b6 d03d a385 a43d b02d 18bd
000000a0: 1583 ab3d dfbd 623c b830 c63d 88b5 463d
000000b0: 94ca cebc 552e d9bd 7d63 0cbe 8efd 1d3e
000000c0: cbdb f2bd 9257 983d 3266 17be 526a a5bd
000000d0: 94b9 55be 8075 5a3d e8e0 053d d8d5 98bd
000000e0: cf5c 89bd b46c 85bd 9094 97b8 dffd bbbd
000000f0: b78e be3d c36f d6bc 7b61 b7bd 66ac 833b
00000100: 79a8 13be 3030 27bd 30b1 d3bd 7a4b 083e
00000110: b528 14bd da73 fc3d c036 ea3d 3b04 d8bd
00000120: 1007 c3bd 081e f9bb 162a 83bd 24e6 c7bd
00000130: cfec 823d 1403 663d 1be1 21be 8145 b2bd
00000140: 34ac 3dbd 61cf 66ba 7cfc 00bd 8f22 843d
00000150: d559 1fbd 4001 e5bd 44cc 3e3d 5c57 ecbd
00000160: fa51 053e 85f9 20bd 48d6 a43a 1e25 35be
00000170: 9cfb 023e f208 a53d 7368 1e3a a48b 523d
00000180: fcd6 933d f193 383d 1508 243d dcbc b0bd
00000190: a32a 5cbd 99ba 1e3c 67cd a0bd 4139 11be
000001a0: 49cc efbd a15c 413e 3c98 fabc ef01 ae3d
000001b0: 89bc 85bd 42b9 2bbe bca4 d83d 4e60 afbc
000001c0: bd8e 653e 689e 8dbd 1956 773d 0a5e dcbc
000001d0: a922 c9bd d96d a9bd b312 a8bd 5024 3fbd
000001e0: 0404 eebc 5432 6dbd 5333 b4bc ac17 2e3e
000001f0: 5da3 cbbd 18cf 01bd a625 e8bd 9b0f 6c3d
00000200: 0e3b 293c 1010 a3bd ac7c 213c 0ca7 83bd
00000210: 74cb d53d c84a b83c c2e4 0c3d f38f 6b3d
00000220: 2001 5fba 7852 1e3d cec5 72bd caf0 27be
00000230: 30b7 cf3d 1597 ffbb 3c67 b9bd cd3f 31bd
00000240: b3ec 073d cd04 e63d e333 c5bc 1df4 2fbd
00000250: a4d9 47bd 9d5c 87bc f4e3 ab3d 2faa d73d
00000260: e379 68be 84a3 5ebd f11f 66be 59fe 0bbd
00000270: 9c06 153d 49f1 d93d 879f 843d 0eaa a23d
00000280: 86a7 fabc 03d7 c93d 3429 b6bd a94b 62bd
00000290: aa3f 303e e711 3f3e a939 943c 2927 223d
000002a0: 4566 2cbd 1640 6cbe 3be3 0abe 653f 8abb
000002b0: 62ec 00be 3269 f4bd 3a4c b1bb ccb3 b33c
000002c0: 6c9e c6bd 075b 633d aaaa 573c 512f 473d
000002d0: 1d0d 413d 538b f93a 46bb 8d3c 24f8 663d
000002e0: f5b5 57bd 8432 e2bc 12e8 02bd b578 b5bd
000002f0: 23a0 09be 390f 463c 59c6 ff3d c146 e5bd
00000300: 9c5d 11bd 1d06 00bd 7656 973d 39c5 903d
00000310: 3144 bdbd 9cbf 88bd 9a4d 353d 2c0b 02be
00000320: f326 913d 368d 0abe 6973 81bd cb96 783d
00000330: 5168 493e ad92 69bd 3e9d 453d e87b d43d
00000340: 5c1a f3bd 7a63 8ebc 3a6c 323e ad14 fb3d
00000350: 3347 1ebe 04c8 2a3d 3dec 96bd d634 653c
00000360: 78e6 f73c a21a d1bd 3759 25bd 6407 ab3b
00000370: 54c4 413c 87f4 1a3e 23c1 51be a520 f23a
00000380: 7129 a9bd 5b92 ebbc f188 433d bbab 5dbd
00000390: cf67 7dbd 812c 34bd b565 8cbd 831e d1bc
000003a0: 5778 ec3c 3846 7e3d b06f 27bd 8772 1b3d
000003b0: 2834 c73d 5e0f 653b b337 00bb 29b5 183d
000003c0: 936b 133d 11c9 b53d 4ccb d33d 7cb3 ddbb
000003d0: bc41 39bd 1f5a 083e 6bdc 65bd e846 c13d
000003e0: 8db5 99bd b5d4 b13d 1825 043e 4dc1 483d
000003f0: 516d 8abd c385 12bd 7750 083e 59f1 b93d
0.080530055 0.0398918 -0.09513406 0.045640904 0.09245109 0.18172523 0.045763895 0.051517516
-0.10292268 -0.025191782 -0.10942925 -0.00034726097 -0.0046626693 -0.025756314 0.046516385 0.012582382
-0.0012036416 0.18538365 -0.0048439577 0.1192111 0.05917675 -0.006210738 0.0999027 0.21894321
0.053804707 0.06253907 0.05933356 -0.12335305 -0.17212611 0.22958516 -0.14328322 -0.0031158335
0.062081344 0.07644732 0.043074194 -0.003152521 -0.118470594 0.10191136 0.08033302 -0.037152946
0.08374611 0.013839214 0.09677261 0.048512965 -0.025243081 -0.1060454 -0.13709827 0.15428755
-0.118583284 0.07438578 -0.14785078 -0.080769196 -0.20871574 0.053334713 0.03268519 -0.074626625
-0.06707155 -0.06514874 -7.227913e-05 -0.091792814 0.093045644 -0.026176339 -0.0895414 0.004018354
-0.14419736 -0.04081744 -0.1033653 0.13310042 -0.036171634 0.123267844 0.11436224 -0.10547682
-0.095228314 -0.007602457 -0.06404512 -0.09760693 0.06392824 0.05615528 -0.15808527 -0.08704663
-0.046306804 -0.00088047056 -0.031490788 0.06451904 -0.03890403 -0.11181879 0.04658152 -0.115401
0.13019553 -0.03930046 0.0012576068 -0.1768994 0.12791294 0.08058347 0.0006042786 0.051402703
0.072187394 0.045062963 0.04004677 -0.08629772 -0.0537516 0.009688043 -0.078516774 -0.14181997
-0.11708886 0.18882991 -0.03059017 0.084964626 -0.06530101 -0.16769889 0.105782956 -0.021408226
0.22417732 -0.06914979 0.060384843 -0.02690031 -0.09821064 -0.08272905 -0.082066916 -0.04666549
-0.02905465 -0.057909325 -0.02199713 0.17001218 -0.099432684 -0.03169164 -0.11335306 0.05763207
0.010329021 -0.07962048 0.009856384 -0.06428346 0.10439196 0.022496596 0.034397848 0.057510328
-0.00085069425 0.038652867 -0.059270673 -0.16400447 0.10142362 -0.007799993 -0.090528935 -0.043273736
0.03318472 0.112313844 -0.024072593 -0.042957414 -0.048791543 -0.016523654 0.08393088 0.10530507
-0.22702746 -0.05435516 -0.22473122 -0.03417811 0.036383256 0.106417246 0.0647574 0.079425916
-0.03059746 0.09855463 -0.088945776 -0.055247936 0.17211786 0.18659173 0.0180939 0.039588127
-0.04208972 -0.23071322 -0.13563244 -0.004218983 -0.12590173 -0.11934127 -0.0054106982 0.02193632
-0.09698185 0.055506732 0.013163248 0.04862911 0.047131646 0.0019038714 0.017301213 0.05638899
-0.052663762 -0.027611978 -0.0319596 -0.08860914 -0.13439994 0.01208859 0.12489004 -0.11195136
-0.035489663 -0.03125583 0.07389538 0.07068867 -0.09241522 -0.066771716 0.04426346 -0.12699574
0.07087507 -0.1353043 -0.06320841 0.060690682 0.196687 -0.057024647 0.04824566 0.10375196
-0.11870262 -0.017381418 0.17424098 0.12259803 -0.15456848 0.041694656 -0.073692776 0.013989648
0.030261263 -0.10210158 -0.040368285 0.005219387 0.011826593 0.15132342 -0.20483832 0.0018472864
-0.082598574 -0.028756311 0.04773802 -0.054118853 -0.061866578 -0.043987755 -0.068553366 -0.025527244
0.028865976 0.062078685 -0.040877998 0.03795102 0.09726745 0.0034951787 -0.001956445 0.037282143
0.035991263 0.08876241 0.1034151 -0.006765781 -0.045228705 0.13315628 -0.05611841 0.094373524
-0.07505331 0.08683149 0.12904775 0.04901247 -0.06759132 -0.035772096 0.13311945 0.090792365

network_body._body_endoder.seq_layers.2.bias f4 [128]
00000000: 2e77 263b 4bcb 583b e33b 98ba ca28 22ba
00000010: 14aa 19b9 d8fe d03a cc61 063b 8622 87b9
00000020: 2239 5fbb 311c df3a 4d52 8439 9a0c d3ba
00000030: 3668 e63a 96a1 653b d398 eeba ecc2 44ba
00000040: fa83 1eba 710a fcba e823 f4b9 f080 efba
00000050: 0961 c43a 1d61 823a 1d00 15bb f08c 1fbb
00000060: 6e48 90bb b24a 553a bdee c23b c159 833b
00000070: 75fc 763a 1e60 2ebb a10c 6b3b 7bca b93a
00000080: 7b6d c6b9 0d99 1f39 0046 f33a d5c1 b9b9
00000090: f5ac 8dbb 0336 d3bb 4e06 a8b9 b322 59bb
000000a0: c693 da3a bc04 17b9 6b24 25bb caa7 0e39
000000b0: 0e38 adba 241a bd3a 9e7d 1cbb 07c7 0fbb
000000c0: eedf ccba 4e17 943b e08a 68bb 4b64 813b
000000d0: fe23 d1ba c862 7bba c723 bc3a 2ffb a138
000000e0: 2d58 55ba 3d00 3ebb 4387 dd39 fd93 a3ba
000000f0: caf6 09ba ba2b c13b 58df 04bb d2e7 c9b8
00000100: e767 a13a 6da2 2a3b 901b 0a3b 9119 d63a
00000110: 4493 993a be72 f13a ddff 1f3b 5654 fc3b
00000120: 21be abba b54a baba ea7b 6fba 2f6e 353b
00000130: dd6d e63a 8d20 5eba c6cf 243a 26d9 81bb
00000140: 154b a1ba 5edd acb9 ac2f 1cbb aac1 a43a
00000150: b52b 3239 5a68 abbb 9990 d8ba d373 39bb
00000160: dece 9b39 45b5 6d39 f70a 6a3b 7181 08bb
00000170: 193a a2ba 785a c2ba ebbc 453b e437 223b
00000180: 23f3 e63a bee5 23b8 79ef bfba 287e 2d38
00000190: 2471 ebba 66d9 9bb9 f42e 81b9 3e67 1aba
000001a0: f524 3039 9f64 baba 4f54 d33a 1a19 413a
000001b0: d428 e339 b832 c3ba 09fa 053b 28b9 4a3b
000001c0: 6515 75bb 7c27 80bb f76d 32b9 6711 6dba
000001d0: 805e beba e9e7 433b 6950 343b 509f e33a
000001e0: d7a2 8dbb bf53 093b 1ecf 3dba aaae 2d3b
000001f0: deac d9b9 d0e6 4d3b 3530 be3a bd84 9939
0.0025400626 0.0033080156 -0.0011614527 -0.00061858876 -0.00014654576 0.001594509 0.0020505069 -0.00025774929
-0.0034061153 0.0017021951 0.0002523832 -0.0016101778 0.0017578665 0.003503894 -0.0018203504 -0.0007505852
-0.0006046888 -0.0019229186 -0.0004656606 -0.0018272679 0.0014982532 0.0009947155 -0.0022735663 -0.002434548
-0.0044031655 0.00081364356 0.00594887 0.0040085022 0.00094217743 -0.0026607583 0.0035865682 0.0014174724
-0.00037847072 0.00015220437 0.001856029 -0.00035430366 -0.0043235966 -0.0064456477 -0.00032048154 -0.0033132255
0.001667612 -0.00014402246 -0.0025198709 0.00013604682 -0.0013215558 0.0014427346 -0.0023878585 -0.0021938698
-0.0015630701 0.0045193797 -0.0035483167 0.0039487234 -0.0015956161 -0.00095896097 0.0014353924 7.723865e-05
-0.00081384444 -0.0028991841 0.00042253183 -0.0012480017 -0.00052629097 0.005895105 -0.0020274725 -9.627607e-05
0.001231429 0.0026036755 0.0021073557 0.0016334524 0.0011716862 0.0018421037 0.002441398 0.0077004833
-0.0013102927 -0.0014212938 -0.0009135591 0.0027684083 0.0017580349 -0.00084734784 0.0006287064 -0.0039626537
-0.0012305701 -0.00032971328 -0.0023832126 0.0012569923 0.00016991685 -0.0052309455 -0.0016522586 -0.0028297796
0.00029718032 0.0002266961 0.0035712102 -0.0020829106 -0.0012376934 -0.0014827987 0.0030172418 0.0024752552
0.0017620068 -3.9076192e-05 -0.0014643512 4.1363906e-05 -0.0017962796 -0.00029725878 -0.0002463978 -0.0005890018
0.00016798436 -0.0014220661 0.0016123148 0.0007366106 0.00043327233 -0.0014892435 0.0020443222 0.0030933116
-0.0037396785 -0.003910957 -0.00017016368 -0.00090434257 -0.0014524013 0.0029892868 0.0027513749 0.0017366204
-0.0043223905 0.0020954458 -0.00072406407 0.0026501813 -0.0004151826 0.0031418093 0.0014510216 0.00029281332

action_model._discrete_distribution.branches.0.weight f4 [7, 128]
00000000: d020 773b 2cbb 5a3c ec81 aabc b081 933c
00000010: fc18 c23c 5ced 5d3a 9ba3 373b df08 b7ba
00000020: 8f73 793c 9b7b 6c3c 9361 95bc 6142 713b
00000030: 92cd 3bbc 26bd c33b bb33 37bc 4a35 363c
00000040: 9846 653c 4bf9 5cbc 67d3 4bba ba61 22bc
00000050: 2a19 733c 7a1b 1ebc 7f8f 9dba c249 353c
00000060: 18fd 0bbb 0beb 29bc d285 133b 4071 d73a
00000070: 371a 063c 6959 1abb f6ba 653c be10 0a3b
00000080: 83b9 41bb 847c 80bc 5235 a13a 04cd b2bb
00000090: 1eec 3f3b 7cb1 7b3a d404 f93b cbe5 0abb
000000a0: 3249 b73b 5888 1fbc ac7c e8bb 39b1 82ba
000000b0: 852f e43b df12 b9ba 5d6b 36bc 5bc1 68bb
000000c0: caa4 aabb 230e f43b b480 9aba 6e17 5d3b
000000d0: d53c 03bb 8107 5ebb 8d50 0f3c aba3 57bb
000000e0: d394 1a3c a421 54bb 60c0 0d3c 7bb4 a33b
000000f0: 9cb1 17bc 2aa1 ecba 9fe6 fcbb 6d09 d1b9
00000100: fe2a 8c3b 219b 533b 5bfd 6d3c 52f8 a8ba
00000110: 3dfa 943b dea8 923c 5fca 4e3c afe0 013b
00000120: 7935 93bc 0f93 c83b f6ea 473b 6454 fd3b
00000130: 8d9f 20bc 443a e2bb 735e 74bb 8267 babb
00000140: 8400 3fba a96f dbbb 175f 81bc d3eb 91b9
00000150: a2f2 943b 0c0d 4bbc b5f8 59bb 69a5 79ba
00000160: 17c6 2a3c fabc ad3b 3ab7 36bb 7d10 0abb
00000170: a1ba 36bc 8ff6 fd39 ba17 5f3c b1b2 41bc
00000180: 67b8 483c a51c 873a ae19 84bc b603 93bb
00000190: 1eb2 263b 8c27 2a3c cf32 243c ec7c 5ebc
000001a0: 34e4 4bbc 6827 eeba 8227 cdba 9f52 d2ba
000001b0: e45c 593c a635 a13b 2d94 5d3b 65a9 9f3a
000001c0: ba20 61bc 7aeb b7bb bfc3 0ebc 10e6 963b
000001d0: f701 54bc ac46 033c 85a8 4fbb 59c6 ecba
000001e0: f0b4 04ba 01e7 38bb 41e6 6a3b d185 b33c
000001f0: e902 49bb a9b0 c03b a218 433c 3bfb 8939
00000200: 976e 1f3c d685 b1bb c257 263b c6c2 f93a
00000210: 833a 373a 36f2 d83b 9328 31bb e299 7c3b
00000220: 0276 a83b 98a6 cbba 028c 56bb 81cf 8fbc
00000230: 55eb 74bb 9f66 6bbc 6d0b a9bb 70a9 223c
00000240: e001 1a3a 8a6d 2c3b 4e09 4bbc 12ef a83c
00000250: ebec 80bb 771b 333c 6f0f 87bc 32fd 683c
00000260: ff0d 9fba 95fc 26bc b503 e03b 0b47 e03b
00000270: 8ca9 7ebc 73f3 e23a a197 adbc cec8 b23c
00000280: efdd 203c 7131 363b 4b83 a2bb 3f01 6d3c
00000290: 5f36 8e3b 3cca edbb 4991 5d3c dcc3 1a3c
000002a0: 7e08 133b 042b 8aba 143c f23a 7140 e03b
000002b0: 2b24 413c 8c97 3d3c e7b9 2dbc 816f 9cbb
000002c0: d6f2 72bb dff7 c23b 38cb 1cbb 8865 c438
000002d0: 8492 fc3b e3ab 353c 75b9 b2bb 5b33 bfbc
000002e0: d748 123c 6043 c5bb 876f 693c 761b 11bc
000002f0: 0dd7 74bc 6158 283c 8d7b 8a3c 4992 8ebb
00000300: 002f deba 40f7 2c3c ddfe 80ba ccbc 9abb
00000310: 6089 5dbc d742 8b3b 246f 76bb 74e4 99bb
00000320: 0d3e 7e3b b2d7 00bc bb81 333a f1e0 4bbb
00000330: 0128 edbb 1136 0a3b e238 ea3b a14b 5abb
00000340: 9848 51bc b488 053c 33e3 0b3c 4b62 e33a
00000350: 3e09 f6ba 972a acbb 5ec4 cdbb 8e2c 5439
00000360: 0872 39bb 05b2 64bc 507b 54bc 14db 9e3b
00000370: df4a 023c c9c7 5bbc b6c7 863a fe92 413a
00000380: b6ba 2abb d74b 563c fbc7 9f3c 966d 543b
00000390: eee1 153c 3287 b93a cf1a 8c3b d593 01bc
000003a0: 1835 6fbc 370d 503c 1b1c a43b 2650 513a
000003b0: 8d49 a33b f357 933c c173 853b 6851 abbc
000003c0: 1542 d43b 026a 193b 184b 32bc b85b ecbb
000003d0: 3094 01bc 7ef4 54bc 321b e5ba 587c 733c
000003e0: 846d 703c 5a3a fbb8 4c08 ceb9 f3e0 173c
000003f0: 7a73 0dbb 4c1d ecbc 0dde 3ebb 8341 413b
0.0037708767 0.013350289 -0.020813905 0.018006176 0.023693554 0.000846585 0.00280211 -0.0013964436
0.015225305 0.014433767 -0.018235004 0.0036813247 -0.011462586 0.005973476 -0.011181767 0.011121104
0.013993882 -0.01348717 -0.0007775337 -0.009910995 0.014837543 -0.009650106 -0.0012020915 0.0110649485
-0.0021360572 -0.01037098 0.0022510183 0.0016436949 0.008184961 -0.0023551828 0.014021626 0.0021067108
-0.0029560036 -0.015684374 0.0012299216 -0.0054565687 0.0029285024 0.00096013374 0.0075994525 -0.0021194096
0.0055934424 -0.009737097 -0.00709494 -0.0009971029 0.0069636726 -0.0014120004 -0.011133996 -0.003551564
-0.0052076327 0.0074479743 -0.0011787624 0.003373589 -0.0020025272 -0.0033878984 0.008747232 -0.003290395
0.0094348965 -0.0032368684 0.008651823 0.00499588 -0.009258654 -0.0018053402 -0.007717922 -0.0003987061
0.004277586 0.003228851 0.014525737 -0.0012891388 0.0045464323 0.017902788 0.012621491 0.001981776
-0.017969834 0.0061210464 0.0030505038 0.0077310074 -0.009803665 -0.0069039185 -0.0037287741 -0.0056886086
-0.00072861486 -0.0066966605 -0.015792413 -0.00027832258 0.0045455256 -0.012393247 -0.0033259813 -0.0009523244
0.010423205 0.005302069 -0.0027880208 -0.0021066957 -0.011152894 0.0004843962 0.013616497 -0.0118223885
0.012250996 0.0010308219 -0.016125526 -0.0044865264 0.0025435756 0.010385405 0.010021879 -0.013579588
-0.012444545 -0.0018169703 -0.0015652033 -0.0016046352 0.013266776 0.0049197255 0.0033810243 0.0012181221
-0.013740713 -0.005612788 -0.008713662 0.0046050623 -0.012939922 0.008012455 -0.0031686139 -0.0018064483
-0.0005062362 -0.002821386 0.0035842808 0.021914395 -0.00306719 0.0058804345 0.011907728 0.00026317858
0.0097309565 -0.005417566 0.0025381898 0.0019055239 0.0006989615 0.0066206707 -0.002703224 0.003854387
0.0051410208 -0.001553732 -0.003273726 -0.017555 -0.0037371714 -0.0143677285 -0.0051588328 0.009928092
0.0005874913 0.0026310408 -0.012392355 0.02062181 -0.003934493 0.010931841 -0.016486851 0.014220523
-0.0012134908 -0.010192056 0.0068363794 0.0068444065 -0.015543353 0.0017314985 -0.021190466 0.021824267
0.009818538 0.0027800465 -0.004959499 0.014465629 0.0043399776 -0.007256774 0.013523408 0.009446111
0.0022435482 -0.0010541384 0.001848104 0.0068436195 0.011788408 0.011571776 -0.010603405 -0.0047740345
-0.003707101 0.0059499587 -0.0023924839 9.36492e-05 0.0077078957 0.011088344 -0.005454237 -0.023339918
0.008928499 -0.0060199946 0.014247782 -0.008856645 -0.01494385 0.010274977 0.016904617 -0.0043509346
-0.0016951263 0.010556996 -0.000984158 -0.0047222134 -0.013521522 0.0042499113 -0.0037602866 -0.004696423
0.003879431 -0.007863926 0.00068476395 -0.0031109417 -0.007237435 0.0021089355 0.0071478942 -0.0033309238
-0.012773655 0.008150268 0.008538055 0.0017348019 -0.0018771065 -0.0052541005 -0.0062795123 0.00020234493
-0.0028296728 -0.013958459 -0.012968853 0.0048478935 0.007952421 -0.013414332 0.0010282907 0.0007384269
-0.002605123 0.013079605 0.019504538 0.003241395 0.009148104 0.0014154671 0.004275657 -0.007908781
-0.014600061 0.012698463 0.0050082332 0.00079846603 0.004983133 0.017986273 0.004072637 -0.020912841
0.006477604 0.0023409133 -0.010882162 -0.007213082 -0.007908866 -0.012997745 -0.0017479418 0.014861189
0.014674548 -0.000119794815 -0.00039297563 0.009269941 -0.0021583722 -0.028822564 -0.0029124052 0.002948851

action_model._discrete_distribution.branches.0.bias f4 [7]
00000000: 648a 5b3b febc 58ba dce1 c83a edb3 28bb
00000010: f05d ad39 d757 f8b9 ec93 003b
0.0033499235 -0.0008267908 0.00153261 -0.002574201 0.0003306712 -0.00047367692 0.0019619418

exp_avg f4 [128, 163]
00000000: 8851 24b6 1ac8 b936 84cd 2eb8 208e 8938
00000010: 74ff 3e38 14de b737 f83e 94b6 2dff 05b8
00000020: c7d7 1438 fefa d737 1a94 2d37 6241 0a37
00000030: c830 4ab8 5285 3a38 9a78 2238 189a ae37
00000040: 83d4 27b6 28cf 06b8 c018 f837 6de7 9037
00000050: 1a6b 9837 0ef5 cb35 ccc9 4ab8 e8b9 5a38
00000060: 4069 f937 f077 b835 3850 6f35 0ad4 8fb7
00000070: 00b2 e237 7f45 cb37 0c2c 3937 a227 1a37
00000080: 255d f7b7 0636 0238 ec5d dd37 6e8c d237
00000090: fedc b734 0777 90b7 0408 10b6 5cb8 f136
000000a0: cdf8 9b37 f04f 16b5 2fb8 11b8 0f7b 1f38
000000b0: 55ff 0938 e621 4338 2ce3 0736 75bd 01b8
000000c0: 828f 39b7 e78c 38b7 4564 6b37 09df 7536
000000d0: 8cec 0db8 ae3e 3038 1488 0c38 68d7 6138
000000e0: e3a7 87b5 4ed9 d7b7 4095 e6b7 9671 b1b7
000000f0: 844c 18b7 4ce3 4636 27d4 0bb8 cc6a 7338
00000100: 1bf2 5538 6c36 a738 a683 4136 b2a2 06b8
00000110: abcb 67b8 7790 51b8 fca5 5bb7 98cf 3a36
00000120: 8cab 27b8 fcf0 9b38 b8a9 8138 ec2b 8338
00000130: aff1 9ab6 7d46 4cb7 26ba 80b8 a449 35b8
00000140: 3041 3c35 2b5f 75b6 10b0 31b8 4d34 6138
00000150: 16d4 3538 f099 3f38 80ad e0b3 0cfd 3cb7
00000160: beac 04b8 c250 08b8 7087 ec36 0e68 0bb6
00000170: ad04 0fb8 661c 6738 c88e 5a38 3f7f db37
00000180: 001a 1036 3892 84b5 4e42 cab7 f74b a7b7
00000190: b851 8f36 dc2a a6b4 7873 a036 e8f5 8c37
000001a0: 47fd 0138 7197 1d38 c0da 1336 bc68 6437
000001b0: 9e14 51b8 9f33 20b8 7e04 37b7 640c 93b6
000001c0: 1ff6 8237 db41 c837 e3db f837 f069 3935
000001d0: 4e54 fab5 e966 0538 ebf0 b5b7 e0c5 e8b6
000001e0: bcb0 a336 4097 89b5 167f ea37 451e 53b7
000001f0: 8a54 e236 70f0 40b7 fd47 dcb6 847e bf37
00000200: 063c beb6 92cd dd36 6463 b1b6 90b6 cb34
00000210: 14ae 1738 25ca 43b7 a067 3336 76b0 06b8
00000220: f60a 05b5 f892 f337 2cd3 8635 2269 f836
00000230: c4c0 74b7 657c 7336 f43c 0738 1623 21b7
00000240: 9487 da36 65ae 2a37 b6ca 1c36 c3d8 1438
00000250: c45f 32b8 ea8e 58b7 65ae 2a37 b6ca 1c36
00000260: c3d8 1438 c45f 32b8 ea8e 58b7 cd54 f7b6
00000270: b2f2 b936 b4a7 f636 10c8 f4b9 0ae8 4137
00000280: 16bc cd36 52b7 0036 ff0c f336 7384 0b38
00000290: 0aaa e336 bd2a b538 9b0b f0b8 2dd9 85b8
000002a0: 2013 4db6 f5fa 0c37 997c 8c38 ff11 8bb8
000002b0: 6641 1fb8 a6f1 6138 9116 74b6 9964 d238
000002c0: 4122 fdb8 1c30 86b8 4944 6d37 4ab5 64b6
000002d0: 7801 a438 3a2a 9eb8 d04d 0eb8 3e1a b637
000002e0: 7a1c 71b5 3090 bc38 6e82 c5b8 97b4 27b8
000002f0: b46a af37 ca9f e0b6 7d7f 6938 efe3 74b8
00000300: 3fff f5b7 aa00 9736 01fd 34b6 6486 9938
00000310: 7aa4 6bb8 c2f6 e3b7 032e afb7 24a8 97b6
00000320: 231f 9c38 8b65 e6b7 609c 1bb6 1802 1736
00000330: ed16 cf36 18d1 6e38 0778 04b8 08fa 0bb7
00000340: 7856 19b8 adce 72b6 5fb5 bd38 1a9e e6b7
00000350: c27f cf36 36fb 42b7 a601 b235 2b8b 4838
00000360: 9415 43b7 b85a ac35 70a8 82b8 782c 2736
00000370: 7f2d a138 707e 5536 5c85 ee37 bec5 b137
00000380: 040d b8b5 f167 2038 729d afb7 bdba feb6
00000390: 7f27 66b8 326f a1b5 13ea 9c38 4b2f 7837
000003a0: fb0b 3a38 5820 0838 cbf1 88b6 421d e837
000003b0: 544a 8db7 f08e beb5 5bfe 5ab8 c77a d335
000003c0: caa6 6638 5e39 5038 7fe2 7438 6b2e c537
000003d0: 709b 98b4 26ac ed37 0015 a837 7423 f737
000003e0: 59e8 3db8 542c 39b6 6429 3e38 c4eb 4538
000003f0: b0e5 9238 7cf3 56b6 cfc8 b736 9f7b d637
-2.4485362e-06 5.5367245e-06 -4.1676234e-05 6.559142e-05 4.553744e-05 2.1918713e-05 -4.4180742e-06 -3.1947322e-05
3.5486908e-05 2.5746875e-05 1.0346086e-05 8.240664e-06 -4.8205984e-05 4.447002e-05 3.873613e-05 2.0814172e-05
-2.5008637e-06 -3.214102e-05 2.9575429e-05 1.7273904e-05 1.8169685e-05 1.5195999e-06 -4.834849e-05 5.214839e-05
2.9732124e-05 1.3743975e-06 8.915117e-07 -1.7145667e-05 2.7024187e-05 2.4231847e-05 1.1037115e-05 9.188343e-06
-2.9488068e-05 3.104473e-05 2.6388989e-05 2.5099343e-05 3.42472e-07 -1.7221564e-05 -2.1462338e-06 7.203822e-06
1.8593297e-05 -5.599568e-07 -3.474223e-05 3.802316e-05 3.2901142e-05 4.6523193e-05 2.02488e-06 -3.0932442e-05
-1.1060272e-05 -1.1000061e-05 1.4030437e-05 3.6637668e-06 -3.383732e-05 4.2020045e-05 3.3505334e-05 5.3844793e-05
-1.0107145e-06 -2.5731188e-05 -2.7487637e-05 -2.1152937e-05 -9.077721e-06 2.9636603e-06 -3.3337765e-05 5.8035177e-05
5.1008636e-05 7.9733174e-05 2.883587e-06 -3.209961e-05 -5.5264372e-05 -4.9964026e-05 -1.3092063e-05 2.7836995e-06
-3.997567e-05 7.435863e-05 6.182812e-05 6.254748e-05 -4.6176933e-06 -1.2175759e-05 -6.1381885e-05 -4.3222346e-05
7.013032e-07 -3.656324e-06 -4.236406e-05 5.369289e-05 4.3351283e-05 4.5681314e-05 -1.0462372e-07 -1.126459e-05
-3.163213e-05 -3.250014e-05 7.049115e-06 -2.0773182e-06 -3.409821e-05 5.510114e-05 5.2108226e-05 2.6166088e-05
2.1472806e-06 -9.877322e-07 -2.4111152e-05 -1.9943325e-05 4.2712454e-06 -3.0951094e-07 4.781814e-06 1.680381e-05
3.099188e-05 3.7572758e-05 2.2032036e-06 1.3614244e-05 -4.9848684e-05 -3.819505e-05 -1.0908696e-05 -4.382384e-06
1.5611817e-05 2.3872524e-05 2.9666297e-05 6.907203e-07 -1.8650987e-06 3.1805514e-05 -2.1689068e-05 -6.9371745e-06
4.878353e-06 -1.0251315e-06 2.7954153e-05 -1.2583628e-05 6.7451665e-06 -1.1500073e-05 -6.5648915e-06 2.2827888e-05
-5.669429e-06 6.610245e-06 -5.2865817e-06 3.7944528e-07 3.616333e-05 -1.1669971e-05 2.6733396e-06 -3.211243e-05
-4.956231e-07 2.9036295e-05 1.0045237e-06 7.403215e-06 -1.4588415e-05 3.6282229e-06 3.2243275e-05 -9.604517e-06
6.5126897e-06 1.0173394e-05 2.3363805e-06 3.5487825e-05 -4.2527696e-05 -1.2907878e-05 1.0173394e-05 2.3363805e-06
3.5487825e-05 -4.2527696e-05 -1.2907878e-05 -7.3710457e-06 5.541683e-06 7.3508945e-06 -0.00046688365 1.1557722e-05
6.131372e-06 1.9180193e-06 7.2434773e-06 3.3263535e-05 6.7849223e-06 8.638713e-05 -0.000114462535 -6.382386e-05
-3.0558513e-06 8.403081e-06 6.698928e-05 -6.6313885e-05 -3.796946e-05 5.3869233e-05 -3.6371969e-06 0.00010032318
-0.000120703604 -6.398579e-05 1.41422e-05 -3.4080172e-06 7.820403e-05 -7.5418924e-05 -3.3927907e-05 2.170831e-05
-8.9820935e-07 8.9913956e-05 -9.4179864e-05 -3.998409e-05 2.0911313e-05 -6.694322e-06 5.567026e-05 -5.8386413e-05
-2.9325134e-05 4.500228e-06 -2.6969358e-06 7.320641e-05 -5.6181547e-05 -2.7175414e-05 -2.0883052e-05 -4.519725e-06
7.444459e-05 -2.7465421e-05 -2.3187822e-06 2.2501972e-06 6.1717496e-06 5.6938356e-05 -3.1583037e-05 -8.343261e-06
-3.6558573e-05 -3.6181111e-06 9.046005e-05 -2.7491758e-05 6.1839537e-06 -1.1621791e-05 1.3262513e-06 4.7813326e-05
-1.162793e-05 1.2841401e-06 -6.230257e-05 2.4910823e-06 7.6855526e-05 3.181307e-06 2.8433911e-05 2.1192125e-05
-1.3712856e-06 3.8243776e-05 -2.0934942e-05 -7.591529e-06 -5.4873057e-05 -1.2027797e-06 7.4822594e-05 1.4792963e-05
4.4357013e-05 3.245505e-05 -4.0812643e-06 2.767018e-05 -1.6843122e-05 -1.4197703e-06 -5.2212137e-05 1.5756458e-06
5.4991608e-05 4.964449e-05 5.8385074e-05 2.3505845e-05 -2.8425302e-07 2.8332764e-05 2.003694e-05 2.9461204e-05
-4.5277502e-05 -2.759295e-06 4.5338078e-05 4.7188034e-05 7.004605e-05 -3.2030212e-06 5.477202e-06 2.5568354e-05

exp_avg_sq f4 [128, 163]
00000000: ce9b 0c2f c267 6e2d bf2f 532f d109 fe2f
00000010: 4ca7 ef2f 7a5a 1e2f 69a1 c82c dd19 182f
00000020: 6da0 d12f 30d1 e32f bd0e 002f bcb5 6d2d
00000030: 74d3 672f ea64 e42f 5715 0730 6dbb 202f
00000040: cf69 222c 2098 3b2f f6cc f22f 97aa fb2f
00000050: b277 0f2f 7e00 5d2c b2e2 662f 2a50 0530
00000060: e07d 0a30 a162 eb2e 7fc5 702c 722d 0a2f
00000070: 8b60 f42f 764a 0f30 0354 0d2f 8c2c af2c
00000080: f9f9 262f cf9b d12f 30f1 f52f 4af5 f22e
00000090: db8d fc2b cb5f 082f e4de ea2f 1370 0d30
000000a0: aeb4 322f f02d d02c 076b 272f da0a dc2f
000000b0: 1e86 0130 75de 852f e846 a22b b83b 072f
000000c0: 78f3 ba2f a279 f52f f83f 252f e1be 912c
000000d0: 8afb 052f da7b c12f a1c9 e42f 7f08 822f
000000e0: 2c43 c42b 7dbc 192f 287e ed2f 1fb9 0030
000000f0: 1081 3c2f fb0b d22c 14d6 012f d6a8 d52f
00000100: 760c f72f c4f8 d12f 673e 752c 68a1 3c2f
00000110: f930 972f ae0c d52f 3c19 fe2e 3ea7 bc2c
00000120: 3ec6 1e2f 89b4 2530 5b9c 1b30 1885 b82f
00000130: 6507 b32c 5ca6 372f b30e c22f c9b8 c72f
00000140: 87b7 242f 9a6e 0e2d 9c4f 152f 1880 fb2f
00000150: 8bc7 0330 6546 a62f ab6a a22c 4e08 142f
00000160: 23d4 552f fffa c02f 4df9 862f 56ca 2f2c
00000170: cfd9 062f b020 bc2f 1567 ee2f 7f0c 912f
00000180: 12ca 032d 4923 d82e b1ca a72f 037d c52f
00000190: 955a 432f 1bf6 722b 64bb e02e ce19 b32f
000001a0: 7e2d 0130 dff2 882f b271 7e2c 4fa3 f72e
000001b0: 98c9 a02f c2eb cc2f c239 072f 4f11 262c
000001c0: 9c92 d62e 3242 bf2f 88c5 0430 828a 3e2f
000001d0: 300e 1f2c 3542 0f2f c116 8a2f 4e28 ad2f
000001e0: 6ac0 152f 2a90 792b 26ef e12e 49e6 b92f
000001f0: 078f f32f 67a5 632f c012 952c f44b 492f
00000200: c7c2 a62f ab70 c92f 3029 6f2f 6ef9 372c
00000210: 5244 372f 488f 6d2f caab a22f ae79 342f
00000220: 70f4 8b2c d057 162f 3eb8 af2f 002b e92f
00000230: de92 112f 0dd6 b02c 2cb5 362f 6b79 a12f
00000240: ce86 cb2f ee22 362f 40e4 3d2c 06a1 162f
00000250: 63aa b52f 9c0b e42f ee22 362f 40e4 3d2c
00000260: 06a1 162f 63aa b52f 9e0b e42f 583b 222d
00000270: 554b eb2e 55e0 942e 4e8c 1b37 0673 c02f
00000280: 2f5f ca2e d588 4b2e 7346 352f 6e21 4a2f
00000290: 98f6 832d 930e f42f 6180 9430 a929 3930
000002a0: dcd7 282f 42e5 582d 833f 9c2f 056d 4c30
000002b0: a2eb 2d30 c891 842f 09de 1a2d beb5 2030
000002c0: cdbc 9d30 00a8 4f30 6e67 132f c9c6 2e2c
000002d0: 6124 c52f 9132 4d30 045f 1f30 d32b 902f
000002e0: 35d0 d92c ca39 0030 cd56 7a30 72ce 2430
000002f0: f2c6 422f cf0b 012d b351 782f cb9a 2630
00000300: 106d 0a30 3949 5c2f 5a9d 712d 4707 bd2f
00000310: 4f77 3f30 ff10 2230 8672 d62e 182c 742c
00000320: 9def d42f 29c2 3230 4c05 1830 1419 592f
00000330: 89ae 452d be49 ab2f be49 1e30 f320 2f30
00000340: e38f 842f d553 732c 23d0 fd2f d254 2230
00000350: b399 0d30 2a31 9b2f bc9a fc2c f970 7b2f
00000360: 5b1f 0930 0411 0e30 a19e c12f 9f41 6e2c
00000370: 6449 0930 36d1 d52f 124f e62f 4f69 722f
00000380: 6741 6f2d 4a9f 562f 696b c42f 68cf f62f
00000390: c1a8 e02f 47d1 fc2c 00f0 0430 cf14 352f
000003a0: 76b8 b32f 8cbc 912f bc13 322d 5948 342f
000003b0: fe16 0c30 ea60 0c30 d7c9 c72f f14b 042d
000003c0: 693f ad2f 45ac bf2f 69ac d42f ecb5 262f
000003d0: 9de3 0b2d 477f 582f e471 fe2f 6a80 0f30
000003e0: ef1f d52f 6f63 b32c 182b 992f d24c ed2f
000003f0: ec04 1130 fa46 372f 9de1 052d 6954 692f
1.2788279e-10 1.35517726e-11 1.9207301e-10 4.6209306e-10 4.3592718e-10 1.440216e-10 5.702262e-12 1.3833508e-10
3.8130868e-10 4.1439696e-10 1.1646768e-10 1.3512243e-11 2.1084451e-10 4.1544662e-10 4.914304e-10 1.4618502e-10
2.308032e-12 1.7061597e-10 4.4165177e-10 4.5777845e-10 1.3048299e-10 3.1406262e-12 2.0998916e-10 4.849904e-10
5.0382987e-10 1.0704083e-10 3.4215684e-12 1.2567172e-10 4.445194e-10 5.212891e-10 1.2853722e-10 4.978745e-12
1.518642e-10 3.8127587e-10 4.4736614e-10 1.1048458e-10 1.794505e-12 1.240316e-10 4.2722725e-10 5.145477e-10
1.6253196e-10 5.9168156e-12 1.5226585e-10 4.0025477e-10 4.712052e-10 2.4350624e-10 1.1530473e-12 1.2299395e-10
3.4006198e-10 4.4651666e-10 1.5029389e-10 4.1423397e-12 1.2185644e-10 3.5194497e-10 4.1616224e-10 2.36529e-10
1.3945282e-12 1.3982233e-10 4.3199688e-10 4.68292e-10 1.7144353e-10 5.969889e-12 1.1808537e-10 3.886444e-10
4.4937892e-10 3.8193637e-10 3.4851234e-12 1.7155843e-10 2.7501537e-10 3.8753484e-10 1.1555065e-10 5.361849e-12
1.4440446e-10 6.0283206e-10 5.6610866e-10 3.3563974e-10 5.088307e-12 1.6702856e-10 3.529884e-10 3.6329187e-10
1.4980915e-10 8.096324e-12 1.3579754e-10 4.574765e-10 4.794109e-10 3.0245242e-10 4.6161595e-12 1.3463472e-10
1.9447603e-10 3.510294e-10 2.4551597e-10 2.4981315e-12 1.226461e-10 3.4220227e-10 4.3365192e-10 2.6384225e-10
7.4913565e-12 9.828811e-11 3.0521144e-10 3.5922917e-10 1.7767328e-10 8.631721e-13 1.0219628e-10 3.2578246e-10
4.6994575e-10 2.4910826e-10 3.6158685e-12 1.1261269e-10 2.9247071e-10 3.72749e-10 1.2298698e-10 2.3599627e-12
9.7576364e-11 3.4789732e-10 4.830203e-10 1.7329607e-10 2.2603135e-12 1.3029296e-10 2.5118221e-10 3.1497155e-10
1.361983e-10 8.866264e-13 1.0274297e-10 3.3814931e-10 4.430307e-10 2.0704292e-10 4.2369164e-12 1.8307827e-10
3.0333622e-10 3.6641742e-10 2.1751556e-10 2.6144325e-12 1.6668025e-10 2.1605928e-10 2.9589692e-10 1.6414134e-10
3.9777556e-12 1.3673618e-10 3.1963227e-10 4.2413006e-10 1.3239851e-10 5.0259853e-12 1.6617169e-10 2.9372002e-10
3.702127e-10 1.6565213e-10 2.698522e-12 1.3699628e-10 3.3044775e-10 4.1481207e-10 1.6565213e-10 2.698522e-12
1.3699628e-10 3.3044775e-10 4.1481213e-10 9.221811e-12 1.06999444e-10 6.77011e-11 9.271387e-06 3.5006326e-10
9.2028045e-11 4.6278387e-11 1.6486883e-10 1.838367e-10 1.5002485e-11 4.4393697e-10 1.0804905e-09 6.736181e-10
1.53562e-10 1.2329084e-11 2.8421362e-10 7.4369694e-10 6.327189e-10 2.4114244e-10 8.803188e-12 5.846593e-10
1.1476914e-09 7.5544904e-10 1.3406318e-10 2.4837235e-12 3.585994e-10 7.4650425e-10 5.797889e-10 2.6224586e-10
6.1906266e-12 4.664825e-10 9.107282e-10 5.995623e-10 1.7714877e-10 7.335423e-12 2.2584494e-10 6.061042e-10
5.0359095e-10 2.0034897e-10 1.3734203e-11 3.438407e-10 6.9654943e-10 5.895941e-10 9.751937e-11 3.4698962e-12
3.873283e-10 6.503194e-10 5.5304805e-10 1.9744945e-10 1.1236908e-11 3.1157116e-10 5.758486e-10 6.3711453e-10
2.4112898e-10 3.4578913e-12 4.6168322e-10 5.9055794e-10 5.151392e-10 2.822927e-10 7.1794497e-12 2.2868453e-10
4.988487e-10 5.168348e-10 3.5219208e-10 3.3858261e-12 4.9944604e-10 3.8893128e-10 4.189294e-10 2.2047185e-10
1.3600099e-11 1.9519777e-10 3.5728512e-10 4.489451e-10 4.086527e-10 7.1855052e-12 4.836238e-10 1.6469247e-10
3.2690978e-10 2.6509317e-10 1.01225105e-11 1.6396608e-10 5.0964377e-10 5.1069426e-10 3.6341305e-10 7.520194e-12
3.1513572e-10 3.4865102e-10 3.868508e-10 1.5162244e-10 7.9517755e-12 1.9690304e-10 4.6283255e-10 5.2205584e-10
3.8767164e-10 5.0985253e-12 2.7861158e-10 4.3164633e-10 5.2757687e-10 1.6668969e-10 7.610271e-12 2.1221215e-10

exp_avg f4 [128]
00000000: 9a32 8237 04ad 7638 5095 e5b6 b042 4736
00000010: 7f6e 06b8 7fd2 7d36 c823 1238 fb14 8bb7
00000020: ec3c 28b5 6278 ccb6 8d12 ab37 5004 b6b4
00000030: 356a 3bb7 c5e5 bdb6 b10c 2337 010c a537
00000040: c27c 13b8 44cc 5bb8 c14a b5b7 1b10 82b6
00000050: c096 6d36 afdc bb37 e5ed a1b5 f861 1238
00000060: 6bd5 a7b7 01f0 d737 50ef aa37 94d8 c537
00000070: d2d8 5bb8 ea52 2eb6 e96e 4237 c51f b0b7
00000080: 6f20 4437 8478 0fb7 26af 75b7 0f83 6637
00000090: f63b 8537 0a12 10b7 4a2d b0b8 4642 0838
000000a0: 2d0a 8737 e012 e9b4 bf88 47b8 49c9 ce36
000000b0: f791 3d36 f9f6 4b37 56b6 5e37 80a4 70b4
000000c0: fb68 0637 4646 3c37 1341 0138 a039 6bb6
000000d0: 749f c336 7fa8 b2b7 25f5 9437 5c1d d1b7
000000e0: 279f 9937 a020 0b35 b5cc 3b37 2529 a5b7
000000f0: 9505 16b8 ea37 8537 c6a0 c2b7 f491 7737
00000100: 7ff5 2238 c063 0c34 cafb b1b7 2154 4837
00000110: 8fe8 2bb7 347f 8c38 a388 68b7 db8a 26b8
00000120: 668c d5b6 6326 54b7 fbb1 8c35 b015 69b5
00000130: 6a93 aa36 a05d 84b4 6448 5e36 807d ccb6
00000140: 0193 80b6 3148 f6b5 4e45 7b37 a0da 0fb8
00000150: 321c 1c38 cd19 afb7 3750 0136 8213 1a37
00000160: c4a7 2eb7 4365 df36 67cd c9b7 40a8 39b7
00000170: 17f3 0ab8 b73d 39b7 4fe4 0138 3632 d636
00000180: 5623 ebb5 462d 5138 ce1f a635 6847 3fb7
00000190: 592a 94b6 4efd 5638 cd6b d2b7 0627 fbb7
000001a0: 5602 02b8 8f5d 05b7 58f5 63b6 1ec5 74b8
000001b0: 6231 20b5 9ce3 92b6 c271 2ab8 7322 7b36
000001c0: 367d 14b6 0468 0536 ae96 b0b7 84dd a137
000001d0: 1458 1837 abc4 2438 f123 4138 c6db 4637
000001e0: 700a 2938 1cfb 5336 7983 ceb6 6291 35b7
000001f0: 5c67 50b7 b42d 87b6 7875 a337 d3a2 45b7
1.552077e-05 5.8812104e-05 -6.842114e-06 2.9692128e-06 -3.2050997e-05 3.7822463e-06 3.4842436e-05 -1.6579861e-05
-6.267353e-07 -6.093688e-06 2.0393427e-05 -3.390328e-07 -1.1170797e-05 -5.6593876e-06 9.718512e-06 1.9675123e-05
-3.516372e-05 -5.2403906e-05 -2.1611691e-05 -3.876177e-06 3.54035e-06 2.2394901e-05 -1.2064671e-06 3.4900353e-05
-2.0007332e-05 2.5741758e-05 2.0377018e-05 2.3585082e-05 -5.24156e-05 -2.5976283e-06 1.1589124e-05 -2.0995629e-05
1.1690062e-05 -8.551524e-06 -1.4643918e-05 1.3739583e-05 1.5882757e-05 -8.587269e-06 -8.40077e-05 3.248665e-05
1.6097993e-05 -4.3413365e-07 -4.7572652e-05 6.162711e-06 2.8248157e-06 1.2157246e-05 1.32746845e-05 -2.2411587e-07
8.011465e-06 1.1222035e-05 3.08166e-05 -3.505127e-06 5.8300157e-06 -2.1297716e-05 1.775713e-05 -2.4928413e-05
1.8313132e-05 5.182901e-07 1.1193731e-05 -1.9688692e-05 -3.5767986e-05 1.5880873e-05 -2.3201468e-05 1.475633e-05
3.8852446e-05 1.3074805e-07 -2.1217293e-05 1.1940517e-05 -1.0246541e-05 6.699414e-05 -1.3860091e-05 -3.9706803e-05
-6.364239e-06 -1.2645122e-05 1.0482612e-06 -8.6830823e-07 5.083556e-06 -2.4655037e-07 3.3122715e-06 -6.094284e-06
-3.831811e-06 -1.8349439e-06 1.4976902e-05 -3.4297467e-05 3.7219557e-05 -2.087364e-05 1.926919e-06 9.183657e-06
-1.0410269e-05 6.6577063e-06 -2.4056715e-05 -1.1066033e-05 -3.312816e-05 -1.1041228e-05 3.0968626e-05 6.3835423e-06
-1.7519149e-06 4.9871647e-05 1.237722e-06 -1.1401113e-05 -4.4156736e-06 5.1257484e-05 -2.508415e-05 -2.9939703e-05
-3.099659e-05 -7.949201e-06 -3.3968445e-06 -5.8357713e-05 -5.9676506e-07 -4.3776363e-06 -4.0637104e-05 3.7421967e-06
-2.21266e-06 1.987909e-06 -2.1051e-05 1.9295847e-05 9.080413e-06 3.928381e-05 4.604826e-05 1.185289e-05
4.030246e-05 3.1587615e-06 -6.154584e-06 -1.082229e-05 -1.2421831e-05 -4.028634e-06 1.9485815e-05 -1.17800255e-05

exp_avg_sq f4 [128]
00000000: 7f50 5830 4e28 6a30 ad92 3b2f aa78 1d30
00000010: 3ebc 1b31 85c4 912e f26b 3731 5a73 4c2f
00000020: 4df9 152e 3fa4 f22e 4656 8e30 1f69 052d
00000030: 8f64 a52e be0d f92c 2ef2 332d 2941 2530
00000040: f1fe a72e 7287 ac2f cc98 802e bfa0 d72e
00000050: b39f c92f ae40 212e 22bb a12c 8686 a030
00000060: 6677 a42e a3bf af2e 7ee4 4930 2493 9e2e
00000070: 46a9 a930 1377 4e2d fb44 3530 a937 9e30
00000080: 4353 7c2e 3ee3 c82f 5fde 862e 55de 3c30
00000090: ebf1 ea30 998c b12e 24ae ee30 8eb8 0431
000000a0: 8066 2130 907b b52e 6b25 0330 5f70 d32f
000000b0: 0be1 8c2d 0937 9c2d bfbb 1730 6f1d 3330
000000c0: c795 062e 8ef0 6730 fb3d f62e c17d 1b30
000000d0: 1cde 8130 9841 1730 0f6d 2230 eda4 9930
000000e0: 00b7 a830 91e3 1530 ed16 9f2e 8c7b 2d2f
000000f0: a692 502f 839a af2f 7595 bb2f 83f1 5a2e
00000100: 23f8 a830 0a0c a12e 59f7 7b30 38b0 8430
00000110: 4964 312e 994c 1f31 d5d1 002e dc6f df2f
00000120: 32c0 ac2d 3b63 932e e60b ba2c f0cd e730
00000130: 0cd9 e52d d0af 882f 5b1d 9c2d 1ed7 362d
00000140: 8bde 602d 1715 b52d 6acd de2d 4ccc f52f
00000150: c00a bc30 af38 2f2f 1b44 102e 1c74 9830
00000160: c0b9 ea2f 6a7e bb2d 8dad 6330 d44a 862e
00000170: b1dc 3c30 e0d1 912e 334d 832f 8df1 2e30
00000180: 36f6 432e 48f0 3d30 fd7a 892d aa7b a52e
00000190: 5841 712d 415a 8b30 5f2a dd2f 709a 2131
000001a0: 1425 1b2f 77ec bb2d 5300 d12c 8b7a c630
000001b0: b18f 2a2e a2f5 7130 6810 8e30 3d69 aa2d
000001c0: 28bf c62d fa58 9a2d d001 fd2f 53c7 4230
000001d0: b74e 932d 222e a031 653e a52f 06fa 252e
000001e0: b649 5530 6c2f 342d cc78 8130 3371 9a2e
000001f0: 579b 192e 8def f52e a8e6 f92e 33a3 d22f
7.8694734e-10 8.518598e-10 1.705966e-10 5.728774e-10 2.2662472e-09 6.6287455e-11 2.6691365e-09 1.8594673e-10
3.41001e-11 1.1034062e-10 1.035638e-09 7.583516e-12 7.521194e-11 7.0785313e-12 1.0228747e-11 6.011925e-10
7.6395675e-11 3.1382857e-10 5.847908e-11 9.805622e-11 3.667516e-10 3.666461e-11 4.596671e-12 1.1679766e-09
7.479066e-11 7.99212e-11 7.344808e-10 7.2111456e-11 1.2344479e-09 1.1736184e-11 6.5945444e-10 1.1511833e-09
5.7372117e-11 3.6541253e-10 6.1331155e-11 6.8709954e-10 1.7094498e-09 8.074003e-11 1.7366273e-09 1.9313435e-09
5.871712e-10 8.252876e-11 4.7710697e-10 3.846052e-10 1.6016096e-11 1.7759587e-11 5.5200283e-10 6.516165e-10
3.06011e-11 8.437916e-10 1.1197795e-10 5.656738e-10 9.449113e-10 5.5026694e-10 5.909024e-10 1.117909e-09
1.227562e-09 5.4529276e-10 7.234555e-11 1.5778151e-10 1.896959e-10 3.1942102e-10 3.4121297e-10 4.9781967e-11
1.2294133e-09 7.323571e-11 9.166477e-10 9.654348e-10 4.033421e-11 2.3181086e-09 2.92902e-11 4.0642945e-10
1.9639488e-11 6.702413e-11 5.287759e-12 1.6865993e-09 2.6130674e-11 2.4863178e-10 1.7748183e-11 1.0393268e-11
1.278234e-11 2.0586683e-11 2.53297e-11 4.4710402e-10 1.3681856e-09 1.5936295e-10 3.28023e-11 1.1092456e-09
4.2696335e-10 2.1315578e-11 8.282875e-10 6.1069066e-11 6.8707623e-10 6.631118e-11 2.3883615e-10 6.3644096e-10
4.4556546e-11 6.909926e-10 1.5629715e-11 7.5252984e-11 1.3713773e-11 1.0139233e-09 4.0229772e-10 2.351637e-09
1.411034e-10 2.136445e-11 5.9401733e-12 1.4441225e-09 3.878115e-11 8.8024354e-10 1.0336523e-09 1.9373498e-11
2.2594884e-11 1.7547287e-11 4.602172e-10 7.0860046e-10 1.6746922e-11 4.6618576e-09 3.005766e-10 3.7738722e-11
7.75937e-10 1.0242345e-11 9.420318e-10 7.0232174e-11 3.4926142e-11 1.1183863e-10 1.1364182e-10 3.8314737e-10
