Source/results/WeightAgent_Training/WeightAgent_Training/WeightAgent_Training-48677.pt (torch, 926564 bytes, 33 tensors)

network_body._body_endoder.seq_layers.0.weight f4 [128, 163]
0.007781584 -0.04135686 -0.016117277 -0.16646999 0.014779741 0.13255684 0.044638865 -0.014868946
-0.101797916 0.010723878 -0.0325458 -0.117311984 0.073139094 0.09023134 0.00033255934 -0.05371309
-0.010639514 0.0310067 -0.115807086 -0.06789837 -0.10945141 -0.009313576 0.06624213 0.06796331
-0.020952342 -0.056744948 0.11620176 0.13970768 0.018956898 -0.10026442 0.08589138 -0.0067777014
-0.07384369 -0.1290794 -0.06501177 -0.037293136 0.07593032 0.07089946 -0.018082168 -0.093848854
-0.06605514 -0.13735713 -0.049647342 -0.057088412 0.1889671 -0.043435887 0.12059837 -0.020389223
0.01997781 0.0042242873 0.06658766 0.037528384 0.07414399 -0.041665502 0.10933365 -0.04175951
-0.042944852 -0.02499047 0.025414808 0.102688454 -0.04642455 -0.07278523 -0.054621357 0.06457603
0.10496112 -0.18172352 -0.081625 0.0556594 0.020440487 -0.05118753 -0.0058006025 0.114823386
-0.03767977 -0.06294773 0.028486138 0.0033844477 0.011944771 -0.030763164 0.09601769 -0.03620111
-0.17570212 0.058446776 -0.008297222 -0.10218531 -0.073062755 -0.119977914 0.07214168 -0.014450693
0.12069719 0.042349506 -0.017625676 -0.030251168 0.06376311 0.086348295 -0.0014973016 -0.042945478
-0.031056305 -0.102588184 -0.089335114 -0.030898277 -0.066554844 -0.12567551 0.044536434 -0.006544727
0.03222616 -0.12853646 0.07568115 0.023179872 0.011188992 0.038215525 -0.0118799815 0.024957133
-0.049198713 -0.11236401 0.023031225 0.12581404 -0.086580366 -0.06875789 0.04200743 0.06661444
-0.058454774 -0.08040979 0.07326105 -0.042539354 0.062870964 -0.088613234 -0.07737882 0.03262993
-0.14287035 -0.07735481 -0.034798946 -0.053215396 0.11572719 0.2411446 0.08036785 -0.08602676
0.11226805 0.04683948 -0.009067381 0.020905973 -0.1207844 0.008083367 -0.0724189 -0.065809496
0.05230468 0.03669535 -0.15214987 0.02790539 0.13414857 0.020261344 0.02146746 -0.019984698
-0.07364747 0.009450945 -0.07634035 -0.053470712 -0.08623783 0.013718902 -0.008063995 0.14278896
-0.012123914 -0.106783904 0.1524486 0.020488797 0.11357886 0.0519309 -0.04442503 0.010565738
0.0589549 -0.12041412 0.09468998 -0.033413094 0.022618089 -0.09302677 0.06446684 0.0063635004
0.020164438 -0.09254683 0.026617967 -0.11917886 -0.10058629 -0.012123141 -0.011767005 0.048250813
-0.0962435 0.023935953 -0.09901445 -0.11259507 -0.02781413 0.06774396 -0.16170396 -2.96156e-05
-0.026322557 -0.030758448 -0.1490369 -0.10488388 0.059082374 -0.10595012 -0.04206324 -0.101052366
0.013758579 0.025591815 -0.06130367 -0.15575673 -0.08757239 0.027736992 0.073689505 -0.1224622
-0.058012076 -0.08814276 0.016021159 0.07295463 0.0276815 0.15450804 -0.10638831 -0.050057482
0.0013153137 -0.021579735 -0.03218691 0.021857666 0.046058573 0.028884785 0.07064121 -0.031692486
0.020636005 -0.06990684 0.07295496 -0.10704361 0.103522606 -0.010601541 -0.11079345 0.008133902
-0.028643774 -0.06979324 0.0646577 0.0016896535 -0.072434366 -0.1666492 0.1517389 -0.03134864
0.09939321 0.0019364266 0.005339343 -0.090014376 -0.07174343 -0.09249443 -0.027782036 -0.006300333
0.18234818 0.07793731 0.14010201 -0.102118045 0.016348237 -0.08736688 -0.0017071674 0.059574284
00000000: a8fc fe3b d065 29bd 6108 84bc 1c77 2abe
00000010: ba26 723c fbbc 073e 3ed7 363d e19c 73bc
00000020: 6d7b d0bd 34b3 2f3c bf4e 05bd 4441 f0bd
00000030: f3c9 953d 35cb b83d 5c5b ae39 4202 5cbd
00000040: 5b51 2ebc c301 fe3c 442c edbd 4d0e 8bbd
00000050: 1028 e0bd f897 18bc f4a9 873d 5930 8b3d
00000060: 3fa4 abbc 646d 68bd 30fb ed3d 880f 0f3e
00000070: 7f4b 9b3c 6f57 cdbd d2e7 af3d 7b17 debb
00000080: 5c3b 97bd 642d 04be e424 85bd b0c0 18bd
00000090: 5b81 9b3d bc33 913d 0e21 94bc d433 c0bd
000000a0: eb47 87bd 59a7 0cbe 035b 4bbd 8ad5 69bd
000000b0: 9780 413e d4e9 31bd 47fc f63d 4d07 a7bc
000000c0: 81a8 a33c e46b 8a3b 1c5f 883d 5db7 193d
000000d0: ced8 973d 72a9 2abd 52ea df3d 050c 2bbd
000000e0: f1e6 2fbd d0b8 ccbc b732 d03c 534e d23d
000000f0: ab27 3ebd 6c10 95bd a5ba 5fbd 7040 843d
00000100: dbf5 d63d bb15 3abe 022b a7bd 1cfb 633d
00000110: cf72 a73c 04aa 51bd fb12 bebb 8628 eb3d
00000120: 1a56 1abd bdea 80bd c35b e93c 9ccd 5d3b
00000130: 00b4 433c 0803 fcbc eca4 c43d 9d47 14bd
00000140: 42eb 33be e365 6f3d 12f1 07bc 8846 d1bd
00000150: eda1 95bd fbb6 f5bd 04bf 933d 99c2 6cbc
00000160: 1730 f73d ad76 2d3d b963 90bc 4cd1 f7bc
00000170: 3c96 823d 60d7 b03d 1b41 c4ba 99e7 2fbd
00000180: cb69 febc c119 d2bd 54f5 b6bd 621e fdbc
00000190: e84d 88bd 15b1 00be d66b 363d 2675 d6bb
000001a0: 94ff 033d 109f 03be b8fe 9a3d b7e3 bd3c
000001b0: 0952 373c e287 1c3d 41a4 42bc e772 cc3c
000001c0: 9784 49bd 1a1f e6bd fbab bc3c 65d5 003e
000001d0: 0c51 b1bd f0d0 8cbd fc0f 2c3d 276d 883d
000001e0: 466e 6fbd e3ad a4bd e409 963d bf3d 2ebd
000001f0: 7ec2 803d db7a b5bd c978 9ebd f6a6 053d
00000200: 9b4c 12be 336c 9ebd 5789 0ebd 63f8 59bd
00000210: 6102 ed3d 9cee 763e e697 a43d cc2e b0bd
00000220: cbec e53d c1da 3f3d 5a8f 14bc 0143 ab3c
00000230: d05d f7bd 1970 043c 5c50 94bd 21c7 86bd
00000240: 6f3d 563d dd4d 163d 2dcd 1bbe d899 e43c
00000250: 3e5e 093e 1efb a53c 87dc af3c f3b6 a3bc
00000260: 7cd4 96bd 23d8 1a3c 5458 9cbd 1b04 5bbd
00000270: 769d b0bd 3fc5 603c d91e 04bc 4537 123e
00000280: 62a3 46bc 85b1 dabd 7c1b 1c3e 1fd8 a73c
00000290: 099c e83d 7fb5 543d 05f7 35bd eb1b 2d3c
000002a0: b17a 713d ae9b f6bd d2ec c13d 2bdc 08bd
000002b0: 9249 b93c d284 bebd 3107 843d e984 d03b
000002c0: e42f a53c 3189 bdbd ec0d da3c 0c14 f4bd
000002d0: 2f00 cebd 24a0 46bc 65ca 40bc a5a2 453d
000002e0: 501b c5bd 5515 c43c 17c8 cabd 3e98 e6bd
000002f0: 75da e3bc 58bd 8a3d b995 25be 046f f8b7
00000300: 67a2 d7bc 24f9 fbbc 219d 18be 5ccd d6bd
00000310: 5c00 723d 60fc d8bd 814a 2cbd 8bf4 cebd
00000320: aa6b 613c eda5 d13c 8f19 7bbd b17e 1fbe
00000330: 2759 b3bd b038 e33c 86ea 963d 76cd fabd
00000340: 129e 6dbd 3184 b4bd ce3e 833c 3d69 953d
00000350: 50c4 e23c 5b37 1e3e 1de2 d9bd 1309 4dbd
00000360: 9b66 ac3a fcc7 b0bc 6cd6 03bd d90e b33c
00000370: eaa7 3c3d c99f ec3c 57ac 903d fbcf 01bd
00000380: d70c a93c 512b 8fbd 6969 953d ae39 dbbd
00000390: a903 d43d 16b2 2dbc ade7 e2bd 0f44 053c
000003a0: 59a6 eabc c2ef 8ebd 426b 843d 5d77 dd3a
000003b0: 7858 94bd 16a6 2abe 7161 1b3e 6e67 00bd
000003c0: ab8e cb3d b2cf fd3a a8f5 ae3b 7559 b8bd
000003d0: 38ee 92bd b86d bdbd 2797 e3bc 0673 cebb
000003e0: 7bb9 3a3e 999d 9f3d e776 0f3e 4423 d1bd
000003f0: bdec 853c 68ed b2bd 08c3 dfba 2a04 743d

network_body._body_endoder.seq_layers.0.bias f4 [128]
-0.008174701 -0.011121781 0.0022549964 0.0097511215 0.011440652 -0.0050846506 0.016199267 0.004682025
0.0046017207 -0.003290779 0.019804478 -0.0067085684 -0.015448286 0.0052055963 -0.004691548 0.007859358
0.0052105943 0.011417348 -0.011984439 -0.01194062 -0.005377889 0.016336752 0.0005135159 0.011952198
0.017200595 0.00727134 -0.0050782366 -0.005333288 -0.0064420644 0.009617344 -0.019351123 0.009726254
-0.0007424369 -0.0076893847 0.0038363028 -0.0096804425 0.015809702 0.006458864 0.00816864 0.0048524924
0.018065793 0.0017150202 0.0011212208 -0.0014661839 0.00886545 0.017981742 0.01780508 0.015022591
0.0007817549 -0.0025940083 -0.0012836982 0.002820328 -0.018502964 -0.0022407263 -0.0036849284 0.0026187873
0.0060739676 0.0009710428 -0.0048936536 0.014206801 0.0023918995 0.0014813937 -0.0028242078 -0.009066553
0.0031769678 0.003420262 0.00097400235 -0.0058296914 -0.010689452 0.0068106046 -0.0013325206 -0.010341569
-0.0030820507 -0.004392661 -0.0089257695 -0.015881132 -0.014360667 0.00060225883 0.0036754764 -0.0055437293
-0.0059707724 0.012679796 0.013466583 0.0042480803 -0.0067686667 0.0017757134 -0.0077281743 0.011123117
-0.004095925 -0.00962259 -0.01032808 -0.015195069 0.009171583 0.011083784 0.003594151 -0.0035401175
0.008742468 -0.0027994153 0.01262786 -0.0131103145 -0.006938145 -0.008899186 -0.010455463 0.0011559546
0.0010719905 0.0055339527 -0.017678278 -0.009340381 -0.0050251028 -0.009818182 -0.0077244886 -0.0120500075
0.0076797097 -0.004575733 4.9968723e-05 0.022858972 -0.012829522 -0.0021634917 -0.0144002605 -0.013436743
0.014011644 -0.003208788 -0.0058291717 0.0061856136 0.0009823062 0.0061262352 -0.002847399 0.014979219
00000000: 2eef 05bc 2138 36bc 90c8 133b 2bc3 1f3c
00000010: 9371 3b3c 249d a6bb 53b4 843c ac6b 993b
00000020: 08ca 963b 1caa 57bb 003d a23c 8dd3 dbbb
00000030: cf1a 7dbc b593 aa3b 8fbb 99bb 89c4 003c
00000040: a2bd aa3b d40f 3b3c 615a 44bc 97a2 43bc
00000050: 0139 b0bb a7d4 853c 789d 063a 27d3 433c
00000060: 43e8 8c3c 6c44 ee3b 5667 a6bb ddc2 aebb
00000070: f417 d3bb 1092 1d3c 3f86 9ebc de5a 1f3c
00000080: 19a0 42ba 3cf7 fbbb 7b6a 7b3b b89a 1ebc
00000090: 5983 813c e1a4 d33b c2d5 053c a801 9f3b
000000a0: b7fe 933c 87ca e03a edf5 923a f82c c0ba
000000b0: 6440 113c 724e 933c f6db 913c 5021 763c
000000c0: afee 4c3a 3d00 2abb c441 a8ba 41d5 383b
000000d0: 8793 97bc 26d9 12bb d77e 71bb f69f 2b3b
000000e0: 2208 c73b 948d 7e3a f15a a0bb a4c3 683c
000000f0: 6ac1 1c3b 532b c23a 5816 39bb e18b 14bc
00000100: ad34 503b 7926 603b 3154 7f3a ff06 bfbb
00000110: d022 2fbc 7e2b df3b f9a7 aeba af6f 29bc
00000120: 3bfc 49bb 50f0 8fbb 643d 12bc 2619 82bc
00000130: 0149 6bbc e8e0 1d3a 43e0 703b 2ca8 b5bb
00000140: 78a6 c3bb ebbe 4f3c f1a2 5c3c 7b33 8b3b
00000150: b1cb ddbb 0ebf e83a a03c fdbb bc3d 363c
00000160: 1c37 86bb 11a8 1dbc 1b37 29bc bdf4 78bc
00000170: 6844 163c c298 353c d98b 6b3b 5101 68bb
00000180: 923c 0f3c 6576 37bb 15e5 4e3c a5cc 56bc
00000190: 6159 e3bb e4cd 11bc 644d 2bbc 6683 973a
000001a0: 0882 8c3a 2956 b53b 09d2 90bc 6608 19bc
000001b0: 9ea9 a4bb 71dc 20bc b51d fdbb 656d 45bc
000001c0: 13a6 fb3b 08f0 95bb 8295 5138 bd42 bb3c
000001d0: ea32 52bc 5ec9 0dbb 12ef 6bbc c925 5cbc
000001e0: 1891 653c 884a 52bb a302 bfbb b0b0 ca3b
000001f0: bac0 803a 96be c83b 6e9b 3abb 666b 753c

network_body._body_endoder.seq_layers.2.weight f4 [128, 128]
-0.20655227 -0.045447655 0.086033836 -0.05805364 -0.05244163 -0.037861433 -0.0720433 -0.0009758178
0.09237581 -0.019247422 0.09761357 -0.052689034 0.041724548 -0.072945654 0.06965271 -0.04452664
0.12713806 -0.030038323 -0.14115532 0.1566273 0.068784475 0.064724974 0.10174321 0.04670057
0.008080268 -0.0450311 0.04789139 -0.014203483 -0.12451947 0.1818693 0.058136467 -0.098278955
0.058417864 0.09574869 0.08982099 -0.024125218 -0.047189068 -0.075719096 -0.02097891 0.065545976
0.038190562 0.08192034 0.049854837 -0.086741365 -0.11770948 -0.047519322 0.029822791 0.0040669865
-0.09467219 -0.12822503 0.0075978637 -0.16831277 0.081611425 0.080126 0.14283489 0.13536055
0.062789015 0.072880596 0.2059668 0.071212314 0.0952492 0.11717301 0.06133937 -0.07232555
-0.13975148 0.06412096 0.13508649 -0.010587256 0.0514971 -0.23251022 -0.053274456 -0.06498422
-0.02811983 -0.012186619 -0.07004744 0.03897077 0.02454079 0.010426438 -0.061061505 -0.12946399
0.18870865 0.00825473 0.05460108 -0.038994834 0.0028754834 -0.112471476 -0.13066152 -0.07993762
-0.0032679648 0.098041855 0.057953805 0.117311746 0.10371049 0.039921757 -0.07124843 -0.07195002
0.10865917 0.09998124 0.0386315 0.017278267 -0.09342366 0.07806977 -0.028420383 -0.0048658177
0.042814955 0.084435456 -0.03043201 0.066017605 -0.0042187576 -0.0032996829 0.04192796 0.20095508
-0.04250759 -0.07237806 0.13087791 -0.11938731 -0.057128906 0.008554183 0.08968863 -0.040195804
0.03381008 -0.055815443 0.08508271 0.25522593 -0.12422928 -0.082490906 -0.0211566 -0.13703936
-0.070998825 -0.03539769 -0.19703272 0.13727348 0.10200438 0.0016421552 -0.028966099 -0.03286559
0.022200765 -0.026302282 0.10469268 -0.13680297 -0.1689124 -0.10561712 -0.09192019 -0.034670305
0.06803486 0.029121296 -0.01852932 -0.19755872 0.035306614 0.12737878 -0.073741816 -0.019339107
-0.059059206 -0.17377023 -0.11404764 -0.080467686 0.14123648 -0.011342786 0.013047621 0.17753172
-0.066665046 0.050197344 -0.14600101 -0.0039951755 0.06924184 -0.049827814 -0.009592834 0.02328216
-0.025703993 0.11095138 0.00069148815 0.10467561 -0.0022372925 -0.17583947 0.058010418 0.076495014
-0.031197842 -0.059206523 -0.03775803 -0.049612846 0.01755725 -0.049966745 -0.049192015 -0.047118895
0.020959828 0.036399003 0.030510768 0.14413065 0.049672596 -0.040844098 0.020556046 -0.06333758
0.025954863 -0.0742702 0.02544716 0.048061498 0.008326212 0.042091515 -0.03780867 -0.14112039
0.0023846936 -0.12579712 0.036691956 -0.029277502 -0.004068744 0.051354073 -0.021303508 -0.053804405
-0.08155889 0.11764538 0.10339573 0.065657154 -0.08825126 -0.0482535 0.08494873 -0.017865892
0.07586655 -0.088552855 -0.09528477 -0.113803156 -0.07334445 -0.052599587 -0.08530663 -0.111718364
-0.1277796 0.11533404 -0.081775896 -0.06829176 -0.033422757 0.001957075 -0.07032425 -0.044326395
0.07799773 0.07288111 -0.13686018 0.0031832324 0.05848965 0.039762992 -0.14347935 0.048243787
-0.14223377 -0.07715579 0.052494776 0.113788866 -0.0071053347 0.13724847 -0.17211518 0.0048718303
0.23884267 -0.015368037 0.008752659 -0.17109823 -0.04658867 -0.006987769 -0.13970742 0.042946897
00000000: 7082 53be 5227 3abd 8232 b03d a7c9 6dbd
00000010: 09cd 56bd 9714 1bbd 708b 93bd 06ce 7fba
00000020: 872f bd3d c5ac 9dbc a0e9 c73d 75d0 57bd
00000030: 5ce7 2a3d 8864 95bd 14a6 8e3d 9161 36bd
00000040: 7b30 023e ee12 f6bc 058b 10be e862 203e
00000050: e0de 8c3d 878e 843d be5e d03d 1949 3f3d
00000060: 1a63 043c 8872 38bd c329 443d bab5 68bc
00000070: 1004 ffbd f23b 3a3e 8120 6e3d 7a46 c9bd
00000080: 9247 6f3d e417 c43d 11f4 b73d 40a2 c5bc
00000090: 5349 41bd 9d12 9bbd f7db abbc f83c 863d
000000a0: b56d 1c3d dac5 a73d 9634 4c3d 75a5 b1bd
000000b0: ab11 f1bd 9fa3 42bd ed4e f43c 5b44 853b
000000c0: 7ee3 c1bd 6c4d 03be 80f7 f83b 2f5a 2cbe
000000d0: e423 a73d 1a19 a43d 4f43 123e f59b 0a3e
000000e0: 8797 803d 6c42 953d f6e8 523e c3d7 913d
000000f0: 0312 c33d 67f8 ef3d fe3e 7b3d 6b1f 94bd
00000100: 031b 0fbe da51 833d 1d54 0a3e 2c76 2dbc
00000110: a0ee 523d 2917 6ebe 5136 5abd 7216 85bd
00000120: 8f5b e6bc 63aa 47bc 0875 8fbd d09f 1f3d
00000130: c409 c93c a7d3 2a3c a11b 7abd 3592 04be
00000140: d73c 413e d93e 073c 62a5 5f3d 0cb9 1fbd
00000150: 9b72 3c3b 7257 e6bd 22cc 05be 56b6 a3bd
00000160: 5a2b 56bb 2bca c83d f860 6d3d 2441 f03d
00000170: 2a66 d43d ff84 233d b2ea 91bd 885a 93bd
00000180: b388 de3d f7c2 cc3d 103c 1e3d 278b 8d3c
00000190: e754 bfbd 0be3 9f3d ddd1 e8bc 7071 9fbb
000001a0: bc5e 2f3d 7fec ac3d 8d4c f9bc 3d34 873d
000001b0: 813d 8abb 7e3f 58bb a7bc 2b3d 2bc7 4d3e
000001c0: 701c 2ebd f33a 94bd dc04 063e 5681 f4bd
000001d0: 0000 6abd d826 0c3c acae b73d 5ba4 24bd
000001e0: 707c 0a3d bc9e 64bd d83f ae3d f9ac 823e
000001f0: ec6b febd fef0 a8bd 9b50 adbc 0c54 0cbe
00000200: d567 91bd 2bfd 10bd f2c2 49be 6b91 0c3e
00000210: ace7 d03d 963d d73a 504a edbc 129e 06bd
00000220: 61de b53c e277 d7bc 1e69 d63d 1416 0cbe
00000230: 5ff7 2cbe ca4d d8bd a740 bcbd 7302 0ebd
00000240: dc55 8b3d c98f ee3c cdca 97bc d54c 4abe
00000250: ab9d 103d 956f 023e f305 97bd 0c6d 9ebc
00000260: 11e8 71bd d3f0 31be cf91 e9bd 3ecc a4bd
00000270: 4ca0 103e 18d7 39bc b0c5 553c e0ca 353e
00000280: af87 88bd bb9b 4d3d 4a81 15be f6e9 82bb
00000290: aace 8d3d 4018 4cbd 432b 1dbc 3aba be3c
000002a0: 2e91 d2bc 7a3a e33d fc44 353a 2b60 d63d
000002b0: 8a9f 12bb 430f 34be 559c 6d3d 6ba9 9c3d
000002c0: 9e92 ffbc 8a82 72bd 2aa8 1abd d736 4bbd
000002d0: 39d4 8f3c eea9 4cbd 917d 49bd beff 40bd
000002e0: f2b3 ab3c 1f17 153d b8f1 f93c fc96 133e
000002f0: 7e75 4b3d 244c 27bd 2765 a83c 22b7 81bd
00000300: 4b9f d43c fa1a 98bd 9076 d03c 22dc 443d
00000310: aa6a 083c 2768 2c3d 44dd 1abd dd81 10be
00000320: 8548 1c3b f6d0 00be 4e4a 163d 5fd7 efbc
00000330: 1953 85bb a658 523d b284 aebc 0262 5cbd
00000340: 5908 a7bd 10f0 f03d 24c1 d33d 4277 863d
00000350: 14bd b4bd 76a5 45bd 9af9 ad3d 7e5b 92bc
00000360: ec5f 9b3d 335b b5bd a924 c3bd a111 e9bd
00000370: 9d35 96bd aa72 57bd 3eb5 aebd 99cc e4bd
00000380: a8d8 02be 4134 ec3d 1f7a a7bd 8ddc 8bbd
00000390: 4de6 08bd 4542 003b 2906 90bd 988f 35bd
000003a0: 46bd 9f3d b142 953d 1325 0cbe c79d 503b
000003b0: d892 6f3d 85de 223d 40ec 12be 479b 453d
000003c0: bba5 11be db03 9ebd c304 573d 230a e93d
000003d0: ded3 e8bb dd8a 0c3e f63e 30be e0a3 9f3b
000003e0: 2c93 743e 38ca 7bbc 5067 0f3c 6034 2fbe
000003f0: c3d3 3ebd a8f9 e4bb 760f 0fbe 16e9 2f3d

network_body._body_endoder.seq_layers.2.bias f4 [128]
-0.007963878 0.018951891 -0.0122818705 0.00731789 -1.0477066e-05 -0.0058736787 -0.015925707 -0.0027350856
0.0013673018 0.008315538 0.0028172305 -0.0095557505 -0.0020548736 0.0040003126 -0.010027372 0.004356182
-0.004745332 -0.016307313 0.015536283 -0.0045513683 0.021939788 0.005379143 -0.021081913 -0.016879877
0.010147262 0.0120888855 -0.004155261 0.00941426 0.0037526311 0.008255506 0.007927481 0.00041311758
-0.019036539 -0.007663937 -0.0033458057 0.009911738 0.027037825 -0.0022098268 -0.016305717 0.003302029
0.0013626841 0.0041480986 -0.0067677083 0.006925778 -0.019855091 0.0027980378 0.000794488 -0.004576257
0.0032260658 -0.008695813 -0.014037118 -0.0044255573 -0.015754523 0.002056014 -0.017988013 -0.021765593
-0.0053587356 -0.012250875 0.012168344 0.007828815 -0.0077022924 0.010075742 0.007878658 -0.003306378
0.005230898 -0.0004330491 0.0011844106 0.0050384435 -0.009198532 0.026026115 0.014489932 -0.0016800399
0.0019950797 -0.006661694 -0.005297174 -0.015467201 -0.017085027 -0.0050089024 0.018453918 0.008078656
-0.017544016 -0.0048468434 0.004370243 -0.0047039175 -0.019790668 -0.00022382315 -0.0012268946 -0.00913879
-0.0062510055 -0.0034072876 0.00066926295 -0.021862108 -0.0064307414 -0.006147419 -0.01303356 0.023261433
-0.0006019853 -0.007914289 -0.006678766 -0.007914501 -0.0070806267 -0.0154124275 -0.014578451 0.013199487
-0.018293107 -0.007831631 -0.0067829853 0.0017375477 0.02244811 -0.0041454905 0.007057404 0.019126235
0.008863114 -0.017673599 -0.0038720535 -0.009164543 0.021510279 -0.0056082723 0.0009009541 -0.015360077
-0.007219264 0.0065205633 0.0062812143 -0.0073648947 -0.019399835 -0.010588734 -0.004926082 0.0075185006
00000000: ed7a 02bc ff40 9b3c e639 49bc e9ca ef3b
00000010: a8c6 2fb7 fd77 c0bb a176 82bc 1f3f 33bb
00000020: 0937 b33a e53d 083c 49a1 383b b98f 1cbc
00000030: 0fab 06bb 0e15 833b d949 24bc 4ebe 8e3b
00000040: bb7e 9bbb ea96 85bc e58b 7e3c a523 95bb
00000050: 12bb b33c 8643 b03b fab3 acbc ab47 8abc
00000060: b440 263c 7610 463c db28 88bb 453e 1a3c
00000070: b4ee 753b 1a42 073c 44e2 013c b497 d839
00000080: 84f2 9bbc c321 fbbb 4e45 5bbb d864 223c
00000090: 6e7e dd3c bed2 10bb 9193 85bc db66 583b
000000a0: 179c b23a c6ec 873b a7c3 ddbb a3f1 e23b
000000b0: 25a7 a2bc 495f 373b 3045 503a 6df4 95bb
000000c0: 676c 533b e278 0ebc f1fb 65bc 4404 91bb
000000d0: a10f 81bc 31be 063b 995b 93bc c24d b2bc
000000e0: 5598 afbb e5b7 48bc bc5d 473c 6e44 003c
000000f0: 8363 fcbb ba14 253c 7d15 013c d1af 58bb
00000100: f467 ab3b de0a e3b9 3a3e 9b3a 8719 a53b
00000110: 71b5 16bc b834 d53c 2e67 6d3c c934 dcba
00000120: e2bf 023b 574a dabb eb93 adbb 256a 7dbc
00000130: e6f5 8bbc b821 a4bb ac2c 973c 575c 043c
00000140: 78b8 8fbc 45d2 9ebb 4134 8f3b 5223 9abb
00000150: 0a20 a2bc 12b2 6ab9 c0cf a0ba ddba 15bc
00000160: 3cd5 ccbb cd4c 5fbb 7a71 2f3a 2a18 b3bc
00000170: f8b8 d2bb 4a70 c9bb b68a 55bc c38e be3c
00000180: 8dce 1dba efaa 01bc 8dd9 dabb d3ab 01bc
00000190: 9a04 e8bb 6884 7cbc 75da 6ebc a942 583c
000001a0: 6ddb 95bc 3e50 00bc ce43 debb 6dbe e33a
000001b0: 19e5 b73c e5d6 87bb cc41 e73b 9fae 9c3c
000001c0: 9836 113c 39c8 90bc 47c2 7dbb e126 16bc
000001d0: 5336 b03c 99c5 b7bb 022e 6c3a d5a8 7bbc
000001e0: 938f ecbb 73aa d53b a5d2 cd3b 3755 f1bb
000001f0: 67ec 9ebc 5f7c 2dbc f96a a1bb c15d f63b

action_model._discrete_distribution.branches.0.weight f4 [7, 128]
0.0038715 -0.0020541355 -0.008365095 -0.0032144596 -0.0073773386 0.018343357 0.022329276 -0.0024351273
0.012053499 0.0017427898 0.011590152 0.0017584047 0.011785857 0.0032462557 0.003897698 -0.013180525
0.018389195 0.015972666 0.003955693 0.01096134 -0.011041404 -0.011024187 0.017407136 0.02242918
-0.0027403077 -0.0007963019 0.009734713 0.0064226678 0.0037298643 0.007928582 -0.005705179 0.012703491
0.01049006 0.003739662 0.024357693 0.0054330374 -0.023930654 -0.0052992622 0.0062292013 0.008110625
0.012718932 0.002190625 -0.009931807 0.012177579 0.029007595 0.00030788544 -0.013734335 0.0030233094
-0.0025797454 0.0076981755 -0.013421697 0.003371914 -0.00018515656 0.009215581 0.016186897 0.01837509
0.020739162 0.018245416 -0.0076310723 -0.015959064 0.009673936 0.007869479 -0.0050252858 -0.0070380303
-5.5630917e-05 -0.00044438924 0.008548109 0.0073329583 0.010216071 -0.010947465 0.006895875 2.8003953e-05
0.01265858 0.007341133 0.023483949 0.018124994 0.010341862 0.013645384 0.005120711 -0.0021180464
0.010411214 -0.0053468393 0.008493969 0.001975689 0.00738239 0.0030321628 0.0041880105 0.022592485
-0.0063539576 0.008742737 -0.0013474767 0.0076692607 -0.0032737774 0.019286962 0.0035770216 -0.0025079208
0.0051174513 0.003964261 0.0022370857 0.0011344306 -0.0070859725 0.0016454383 0.013418024 -0.0009427208
0.014980556 0.007964046 0.0033673057 -0.00803516 -0.0033302882 -0.0047247177 -0.00294584 -0.011196578
-0.0004305179 0.0071140844 0.0098484615 0.005414841 0.0036298514 0.008616734 0.012510158 0.007623815
-0.0013472758 0.011183968 0.0018817794 -0.0016290467 0.013143471 0.009582372 0.008093153 0.0058145416
0.0154375555 -0.0035563156 0.0054887114 -0.0063470285 0.008837693 -0.0032903126 0.0068086963 -0.005127865
0.0031673403 0.014421007 0.002364688 -0.0066371784 -0.0061898096 -0.011032788 -0.005140798 -0.007907911
-0.00060385343 0.012522706 -0.010257265 0.007454612 -0.013170321 0.00039373795 0.010973384 0.012702232
-0.000421778 -0.00570017 -0.0044775996 0.017849663 -0.0046884157 0.0068725757 0.0037262433 0.005502327
0.01313811 0.017971098 0.0067260596 -0.0009704314 -0.005992848 -0.002004601 0.0018315499 -0.023327269
-0.004671786 0.01128311 -0.006088807 0.02474446 0.022737235 -0.008803995 0.0011302391 0.004342488
0.0061950954 0.010541898 0.004763343 0.010961327 0.015475792 -0.010530234 0.0112068895 0.002788834
0.0069231265 0.0053710495 -0.0058913087 0.005115251 0.0056259716 0.004074889 0.0016977342 0.0016887537
-0.010196327 -0.0013916609 8.69026e-05 0.008011329 0.008377601 -0.008839098 0.002400712 -0.0033973274
-0.0024099657 -0.008121547 -0.0022271792 0.016192582 -0.0012444936 0.0045769685 -0.012224142 -0.003805435
0.010291623 0.01348599 0.0068702595 0.006699452 0.018331094 0.0040290747 -0.0011857619 0.0044069528
0.008277457 0.0074081994 0.0067164027 0.010663472 0.009634784 0.02002905 -0.0017814146 -0.006096475
0.0054607457 -0.0113398535 0.018398197 0.018019948 -0.0019910973 0.0133523075 0.020181354 -0.0057113487
0.011604487 -0.0034313332 0.021747857 0.004390843 -0.010472966 -0.008314879 0.0053717033 -0.01694955
-0.00824163 0.011804436 0.009188258 -0.0020132528 -0.008844407 0.018000748 -0.008183492 0.0046880073
0.023464164 0.0022844304 -0.0104001425 0.0020436542 0.00021255249 -0.0068620103 0.004093524 -0.003555621
00000000: feb8 7d3b ad9e 06bb c00d 09bc afa9 52bb
00000010: 9abd f1bb cf44 963c e3eb b63c a896 1fbb
00000020: 0a7c 453c 526e e43a 9fe4 3d3c 457a e63a
00000030: 7819 413c 22bf 543b 8570 7f3b 21f3 57bc
00000040: f0a4 963c 1cd9 823c c29e 813b 3197 333c
00000050: 01e7 34bc cb9e 34bc 6999 8e3c 66bd b73c
00000060: bc96 33bb eabe 50ba 587e 1f3c 3e75 d23b
00000070: bd70 743b e2e6 013c 83f2 babb 4e22 503c
00000080: 80de 2b3c 1e15 753b c989 c73c 9f07 b23b
00000090: 380a c4bc 6fa5 adbb 541e cc3b 6de2 043c
000000a0: 1163 503c 9790 0f3b 05b9 22bc 7884 473c
000000b0: 56a1 ed3c af6b a139 fa05 61bc b722 463b
000000c0: f210 29bb fa40 fc3b ade6 5bbc 54fb 5c3b
000000d0: 9626 42b9 f3fc 163c 629a 843c 5b87 963c
000000e0: 2de5 a93c 6977 953c 130e fabb 95bc 82bc
000000f0: 6e7f 1e3c fdee 003c 27ab a4bb 479f e6bb
00000100: 3e55 69b8 eafc e8b9 5e0d 0c3c 5049 f03b
00000110: 4f61 273c ff5c 33bc cbf6 e13b 08ea ea37
00000120: ef65 4f3c e38d f03b 6961 c03c de7a 943c
00000130: ea70 293c e490 5f3c a3cb a73b ecce 0abb
00000140: cc93 2a3c 8a34 afbb 4a2a 0b3c 907a 013b
00000150: fae7 f13b 40b7 463b 943b 893b e013 b93c
00000160: dc34 d0bb b23d 0f3c d19d b0ba 6c4e fb3b
00000170: df8c 56bb b1ff 9d3c 776c 6a3b ee5b 24bb
00000180: 4bb0 a73b a2e6 813b 129c 123b 2db1 943a
00000190: 7231 e8bb bfab d73a 46d7 5b3c ec20 77ba
000001a0: 0271 753c a17b 023c 04ae 5c3b e7a5 03bc
000001b0: f740 5abb ced1 9abb fe0e 41bb da71 37bc
000001c0: 22b7 e1b9 441d e93b 715b 213c fb6e b13b
000001d0: cde2 6d3b 342d 0d3c 68f7 4c3c 32d1 f93b
000001e0: 1397 b0ba f63c 373c 0aa6 f63a bd85 d5ba
000001f0: b757 573c 62ff 1c3c 2599 043c e987 be3b
00000200: cded 7c3c 1311 69bb a6da b33b bcfa cfbb
00000210: f9cb 103c 49a2 57bb 7c1b df3b a607 a8bb
00000220: 2793 4f3b 1646 6c3c e2f8 1a3b b07c d9bb
00000230: e3d3 cabb dec2 34bc 2474 a8bb 2f90 01bc
00000240: eb4b 1eba 092c 4d3c 160e 28bc d145 f43b
00000250: 54c8 57bc 9d6e ce39 b5c9 333c 061d 503c
00000260: 1622 ddb9 7ec8 babb d4b8 92bb 7539 923c
00000270: 48a1 99bb 5833 e13b fd33 743b dd4c b43b
00000280: 3a41 573c 2038 933c 4766 dc3b 8d64 7eba
00000290: a75f c4bb a05f 03bb 9e10 f03a d418 bfbc
000002a0: c815 99bb cbdc 383c 9d84 c7bb e5b4 ca3c
000002b0: 7043 ba3c a23e 10bc 8824 943a 6e4b 8e3b
000002c0: 3a00 cb3b edb7 2c3c d115 9c3b 2397 333c
000002d0: 2d8e 7d3c 0187 2cbc 1a9d 373c dfc4 363b
000002e0: 65db e23b a1ff af3b e10b c1bb d69d a73b
000002f0: 125a b83b a586 853b 8286 de3a 2c59 dd3a
00000300: 7f0e 27bc 6468 b6ba 7a3f b638 f341 033c
00000310: 3542 093c ddd1 10bc 4455 1d3b b2a5 5ebb
00000320: 84f0 1dbb 3d10 05bc def5 11bb 4ea6 843c
00000330: 471e a3ba 65fa 953b c547 48bc 9b64 79bb
00000340: 329e 283c 58f4 5c3c ea1f e13b 1487 db3b
00000350: 172b 963c 5406 843b 916b 9bba 3368 903b
00000360: 2c9e 073c 7bc0 f23b 4515 dc3b d8b5 2e3c
00000370: 37db 1d3c f613 a43c 5b7e e9ba f0c4 c7bb
00000380: 0ef0 b23b cbca 39bc d1b7 963c 929e 933c
00000390: 127d 02bb a3c3 5a3c 5e53 a53c 4426 bbbb
000003a0: bf20 3e3c 38e0 60bb 9028 b23c 10e1 8f3b
000003b0: ce96 2bbc 213b 08bc 1d05 b03b c8d9 8abc
000003c0: e707 07bc 6567 413c 598a 163c c7f0 03bb
000003d0: 22e8 10bc 4e76 933c 0e14 06bc db9d 993b
000003e0: eb37 c03c 62b6 153b 5c65 2abc d4ee 053b
000003f0: a0e0 5e39 b7da e0bb f822 863b 6c05 69bb

action_model._discrete_distribution.branches.0.bias f4 [7]
-0.007163091 -0.008163493 -0.0009701691 0.016339594 -0.006093864 -0.004967278 -0.0030137235
00000000: 5db8 eabb 2cc0 05bc f252 7eba 9dda 853c
00000010: 09af c7bb 8cc4 a2bb e481 45bb

exp_avg f4 [128, 163]
-4.7715366e-07 -3.8226017e-07 1.0890046e-06 -7.0028964e-06 -1.318886e-05 3.452392e-07 -1.4861797e-07 3.1678285e-06
-8.70998e-06 -1.1334832e-05 -3.792451e-06 -3.7506055e-07 1.6120225e-06 -4.68968e-06 -1.14965505e-05 -9.730737e-06
-7.472048e-08 7.174187e-06 -1.9732636e-06 -7.728068e-06 4.731939e-07 -3.9539202e-08 5.2042355e-06 -1.2488619e-05
-1.0948731e-05 -2.5431268e-06 -4.7159128e-07 7.573956e-06 -5.1501593e-06 -6.8638265e-06 -5.604533e-06 5.7165693e-08
4.217735e-06 -1.2137632e-05 -1.1586018e-05 -8.5487245e-06 -4.8675713e-07 8.653131e-06 2.6232287e-06 -2.3150576e-06
1.6622391e-06 -6.6271264e-07 6.1336123e-06 -1.8351899e-05 -1.3637047e-05 -2.4109581e-06 1.0633945e-06 7.4663285e-06
-5.084525e-06 -5.345561e-06 1.4410302e-06 -9.1402484e-07 2.6365851e-06 -1.05081335e-05 -1.4909245e-05 -5.0139533e-08
-2.3003268e-07 4.1422304e-06 -4.4470085e-06 -1.05919335e-05 1.1126347e-05 -1.9521458e-06 -1.151195e-06 -1.3122015e-05
-1.3193152e-05 -9.866336e-07 3.2704378e-07 2.0677721e-06 -1.025569e-06 -6.5548243e-06 1.0745507e-05 -5.5772756e-07
-8.415099e-06 -9.1970305e-06 -1.1531951e-05 -4.839801e-06 -5.9453475e-07 2.600251e-06 -3.984367e-06 -8.361403e-06
-1.729677e-06 -2.0037046e-06 -3.7583986e-06 -4.460478e-06 -1.1475667e-05 -1.0629103e-06 -2.1871233e-06 2.3875593e-06
-8.43039e-06 -1.037664e-05 7.2172843e-06 3.6612846e-10 -2.428497e-06 -1.4332827e-05 -1.588006e-05 2.7304184e-06
-1.1941095e-06 4.2093634e-06 -1.8563971e-05 -1.3322342e-05 3.5087191e-07 -2.7339337e-07 8.133054e-08 -5.108281e-06
-1.1466599e-05 -2.8105646e-06 1.4738807e-06 2.2734841e-07 -1.6559134e-05 -1.0384321e-05 -8.458393e-07 -2.6555617e-07
7.6261013e-06 -1.2970828e-05 -1.664501e-05 -1.6394723e-06 -5.124912e-07 1.8982473e-06 -1.1149378e-05 -8.975585e-06
2.3208938e-06 -7.570353e-07 5.087091e-06 -1.1652335e-05 -1.7502742e-05 -3.7311838e-06 9.486687e-07 1.0878043e-06
-8.660228e-06 -7.4204386e-06 4.0753775e-08 2.7510623e-07 2.633469e-06 -1.284296e-05 -1.768094e-05 1.14097e-06
3.2021637e-07 -1.1318205e-06 -9.565907e-06 -1.2063334e-05 -1.5086613e-06 5.6304344e-07 2.3317316e-06 -9.433558e-06
-1.4002684e-05 5.3677127e-07 1.1437638e-06 -2.0804785e-06 -8.756303e-06 -1.1852897e-05 5.3677127e-07 1.1437638e-06
-2.0804785e-06 -8.756303e-06 -1.1852896e-05 -2.729003e-07 2.5407471e-06 -2.6116534e-06 -0.00024974922 -1.9740905e-06
-3.0158315e-06 -5.064723e-06 -1.0409975e-06 9.993687e-06 1.5266502e-06 5.0958086e-05 -2.990158e-05 -4.899037e-06
-1.2905655e-05 8.2494194e-07 4.7244375e-05 -1.6231722e-06 4.438191e-06 1.4026405e-05 2.23224e-06 4.0308147e-05
-1.0916912e-05 4.8303355e-07 3.1894244e-05 -2.1137114e-06 3.969219e-05 -4.7396523e-05 -1.0497036e-05 6.215305e-08
-3.0873362e-06 4.1149113e-05 2.4377203e-05 1.1277773e-05 3.2858143e-06 -2.513057e-06 2.5240917e-05 -2.767423e-05
6.338134e-06 3.3358014e-05 8.204581e-06 2.4128614e-05 -3.8107364e-06 2.9225946e-06 -5.9585534e-05 -6.918135e-06
1.6260274e-05 5.313762e-06 2.394393e-05 -3.1478726e-07 -1.0873472e-06 2.3052098e-05 5.366652e-05 3.7367743e-05
-5.1727075e-05 -1.1772417e-07 2.6459262e-05 -1.6908572e-05 6.6053053e-06 3.189671e-05 -6.3450134e-06 3.363682e-05
1.6858625e-05 1.2167775e-05 -4.9964914e-05 5.0576503e-08 1.0734229e-05 -2.1427999e-05 -8.333914e-06 3.3542026e-05
-3.0225654e-06 6.4804794e-06 3.3652537e-05 1.0549963e-05 -5.5847795e-05 -1.2001263e-05 -1.0687156e-05 1.2984337e-05
1.0950122e-05 -8.119525e-06 -3.0910355e-06 1.7996952e-05 4.870952e-05 3.590942e-05 -2.0978321e-05 -1.305071e-06
-1.63362e-05 -4.0783954e-05 -1.9758867e-05 -1.9705356e-05 -3.1759632e-06 1.0845007e-05 6.446843e-05 3.6491703e-05
8.729499e-06 8.594864e-06 -3.2090924e-05 -6.321614e-05 -4.2764746e-05 -2.197683e-06 -4.258769e-07 1.209294e-05
00000000: c015 00b5 7039 cdb4 ea29 9235 6cfa eab6
00000010: b945 5db7 5059 b934 cc93 1fb4 e196 5436
00000020: 1421 12b7 bc2a 3eb7 d081 7eb6 ee5b c9b4
00000030: ac5c d835 0b5c 9db6 4fe1 40b7 3241 23b7
00000040: 0576 a0b3 ccb9 f036 696c 04b6 cda7 01b7
00000050: 460b fe34 d0d1 29b3 0ba0 ae36 3686 51b7
00000060: 71b0 37b7 96aa 2ab6 032f fdb4 c923 fe36
00000070: 88cf acb6 d24f e6b6 920e bcb6 5886 7533
00000080: 1186 8d36 bca2 4bb7 9261 42b7 7e6c 0fb7
00000090: b2a9 02b5 ea2c 1137 ba0a 3036 635c 1bb6
000000a0: 1a1a df35 44e5 31b5 54cf cd36 67f2 99b7
000000b0: acca 64b7 f2cb 21b6 f5b9 8e35 4687 fa36
000000c0: bd9b aab6 055e b3b6 6c69 c135 4f5b 75b5
000000d0: 30f0 3036 174c 30b7 b822 7ab7 0059 57b3
000000e0: e7fe 76b4 7dfd 8a36 8337 95b6 02b4 31b7
000000f0: 4cab 3a37 9c01 03b6 c282 9ab5 a026 5cb7
00000100: 2858 5db7 796c 84b5 8e94 af34 0ec4 0a36
00000110: 48a6 89b5 83f1 dbb6 9a47 3437 bfb6 15b5
00000120: 932e 0db7 f24c 1ab7 5a79 41b7 9365 a2b6
00000130: 1e98 1fb5 f97f 2e36 74b1 85b6 f447 0cb7
00000140: 4027 e8b5 6277 06b6 cc38 7cb6 37ab 95b6
00000150: 9d87 40b7 52a9 8eb5 7ec6 12b6 f539 2036
00000160: 4070 0db7 5417 2eb7 002c f236 0048 c92f
00000170: 43f9 22b6 0677 70b7 2b36 85b7 3b3c 3736
00000180: 4a45 a0b5 283e 8d36 d3b9 9bb7 0683 5fb7
00000190: 785f bc34 e6c6 92b4 f0a7 ae33 cd67 abb6
000001a0: ab60 40b7 229d 3cb6 28d2 c535 0e1d 7434
000001b0: 78e8 8ab7 5238 2eb7 a20d 63b5 c391 8eb4
000001c0: b6e3 ff36 489d 59b7 e3a0 8bb7 d70b dcb5
000001d0: 2192 09b5 48c7 fe35 370e 3bb7 d895 16b7
000001e0: a7c0 1b36 1237 4bb5 c7b1 aa36 667e 43b7
000001f0: dad2 92b7 4065 7ab6 04a8 7e35 ac00 9235
00000200: 654b 11b7 15fd f8b6 4009 2f33 50b2 9334
00000210: a7ba 3036 1878 57b7 8851 94b7 6e23 9935
00000220: 34ea ab34 0ee9 97b5 427d 20b7 a063 4ab7
00000230: 357d cab5 0d24 1735 d87a 1c36 d344 1eb7
00000240: 12ed 6ab7 a416 1035 6d83 9935 599e 0bb6
00000250: 09e8 12b7 cedb 46b7 a416 1035 6d83 9935
00000260: 599e 0bb6 09e8 12b7 cddb 46b7 2283 92b4
00000270: b481 2a36 dd43 2fb6 c6f0 82b9 9e7a 04b6
00000280: 9763 4ab6 a4f1 a9b6 67b8 8bb5 8faa 2737
00000290: 4de7 cc35 d4bb 5538 27d5 fab7 6862 a4b6
000002a0: 5e85 58b7 9471 5d35 4328 4638 c6db d9b5
000002b0: c5eb 9436 f352 6b37 97cd 1536 8b10 2938
000002c0: c827 37b7 d0a9 0135 2fc6 0538 49d9 0db6
000002d0: 2a7b 2638 a1cb 46b8 6d1c 30b7 0079 8533
000002e0: 0830 4fb6 8697 2c38 a57d cc37 ab35 3d37
000002f0: dc81 5c36 fea5 28b6 75bc d337 f525 e8b7
00000300: 28ac d436 e5e9 0b38 68a6 0937 ce67 ca37
00000310: f4bb 7fb6 cb21 4436 7beb 79b8 5422 e8b6
00000320: ac66 8837 de4c b236 33db c837 0800 a9b4
00000330: f7f0 91b5 0160 c137 fd17 6138 4fbb 1c38
00000340: 86f5 58b8 8ccf fcb3 d5f4 dd37 e2d6 8db7
00000350: 24a3 dd36 d5c8 0538 40e7 d4b6 4315 0d38
00000360: 9f6b 8d37 3224 4c37 6b91 51b8 7439 5933
00000370: 2a17 3437 47c0 b3b7 e3d1 0bb7 7aaf 0c38
00000380: 47d7 4ab6 e572 d936 2326 0d38 bfff 3037
00000390: 1d3e 6ab8 0859 49b7 fc4c 33b7 4ed7 5937
000003a0: 6ab6 3737 1839 08b7 966f 4fb6 29f8 9637
000003b0: 734d 4c38 729d 1638 9afa afb7 e629 afb5
000003c0: b909 89b7 700f 2bb8 d8bf a5b7 ee4c a5b7
000003d0: a222 55b6 f3f2 3537 3a33 8738 ab0e 1938
000003e0: ea74 1237 a932 1037 5e99 06b8 e892 84b8
000003f0: 4c5e 33b8 e87b 13b6 13a4 e4b4 c8e2 4a37

exp_avg_sq f4 [128, 163]
1.05538474e-10 5.1142814e-12 7.178095e-11 8.8283415e-11 1.166435e-10 1.369919e-10 6.0989725e-12 6.006185e-11
6.4710695e-11 1.0067948e-10 7.66853e-11 4.0888994e-12 6.2650336e-11 1.0021757e-10 1.3218837e-10 1.0916979e-10
5.412709e-12 7.57787e-11 5.0909936e-11 1.0005883e-10 7.737331e-11 3.888349e-12 6.254109e-11 1.04753976e-10
1.400689e-10 7.785088e-11 6.351154e-12 9.111549e-11 8.63241e-11 1.2716198e-10 8.428299e-11 3.5348796e-12
6.9574346e-11 1.3628193e-10 1.5352265e-10 8.555465e-11 6.8215433e-12 8.6271774e-11 8.5610595e-11 1.263561e-10
8.82619e-11 1.9907175e-12 6.534781e-11 1.387124e-10 1.635538e-10 7.43551e-11 7.849764e-12 8.485372e-11
1.1931035e-10 1.3941286e-10 9.218866e-11 1.4072425e-12 6.640904e-11 1.3973589e-10 1.6387806e-10 6.5020586e-11
3.9086768e-12 7.384522e-11 1.2243717e-10 1.4389906e-10 8.449141e-11 2.1351757e-12 6.072414e-11 1.4990048e-10
1.6918533e-10 7.833147e-11 6.2258063e-12 4.5322853e-11 1.15391946e-10 1.3227561e-10 8.147325e-11 4.4888706e-12
5.298737e-11 1.5118752e-10 1.7509448e-10 7.2020064e-11 5.1515706e-12 5.1019616e-11 1.0713035e-10 1.3329898e-10
8.8385035e-11 3.5496532e-12 5.1255774e-11 1.3922073e-10 1.7207717e-10 5.2357348e-11 9.746626e-12 4.4338654e-11
8.898107e-11 1.3249064e-10 7.136681e-11 1.6799738e-12 4.789953e-11 1.7246575e-10 1.9153111e-10 5.7185964e-11
6.6317707e-12 4.0947558e-11 9.886545e-11 1.2298536e-10 6.465336e-11 3.3052964e-12 4.279808e-11 1.4997457e-10
1.7826694e-10 5.017062e-11 8.061799e-12 1.7982695e-11 1.3432498e-10 1.5698062e-10 6.2557036e-11 6.0607812e-12
4.1275063e-11 1.4710175e-10 1.7306931e-10 6.0502915e-11 7.1319543e-12 2.197289e-11 1.2577761e-10 1.433784e-10
4.7901218e-11 2.646551e-12 3.6751314e-11 1.2926844e-10 1.5602857e-10 6.2756814e-11 3.4278392e-12 2.5523318e-11
1.2148398e-10 1.3705427e-10 4.2948575e-11 1.0342402e-12 2.9223145e-11 1.425267e-10 1.549388e-10 6.467348e-11
4.804463e-12 2.4012807e-11 1.2851382e-10 1.5406179e-10 5.3079395e-11 2.1893015e-12 2.7266573e-11 1.1979996e-10
1.391062e-10 6.779468e-11 2.691175e-12 2.3730575e-11 1.406198e-10 1.5896809e-10 6.779468e-11 2.691175e-12
2.3730575e-11 1.406198e-10 1.589681e-10 1.3759456e-12 1.9070714e-11 1.6351693e-11 1.0061018e-06 4.1267878e-11
9.771612e-11 2.679425e-10 1.1230724e-11 9.144423e-10 2.4667048e-11 4.4781145e-10 1.239353e-09 1.8669504e-09
9.899884e-10 3.424699e-11 4.5642204e-10 9.615168e-10 1.8691917e-09 1.0211337e-09 3.4718693e-11 4.520021e-10
1.1116564e-09 1.9058157e-09 1.0866548e-09 2.8216261e-11 3.747e-10 1.0728266e-09 1.807357e-09 8.7146423e-10
3.3085135e-11 4.1269982e-10 1.3062031e-09 2.1922602e-09 1.1095607e-09 2.6009363e-11 3.4041814e-10 1.1678124e-09
1.842639e-09 7.6687856e-10 3.044558e-11 3.736292e-10 1.4866368e-09 2.2761588e-09 1.4357265e-09 2.8497434e-11
3.161131e-10 1.1757677e-09 1.9601365e-09 9.281757e-10 2.520586e-11 3.4702183e-10 1.5464146e-09 2.2818973e-09
1.0342994e-09 1.1444595e-11 3.0629266e-10 1.3336541e-09 1.9830788e-09 9.908167e-10 2.0926637e-11 3.9247128e-10
1.329288e-09 2.1268551e-09 1.1859693e-09 3.365238e-11 2.843194e-10 1.2972018e-09 2.0998532e-09 1.034189e-09
2.7637293e-11 3.812738e-10 1.6522095e-09 2.35116e-09 1.2281198e-09 3.3892136e-11 2.4631513e-10 1.4635557e-09
2.1517457e-09 1.13308e-09 2.2181475e-11 4.2424217e-10 1.7152242e-09 2.5056697e-09 1.3373403e-09 1.5448226e-11
2.1166627e-10 1.423745e-09 2.111355e-09 8.884185e-10 2.5627084e-11 4.0600795e-10 1.9596709e-09 2.7848122e-09
1.3842915e-09 2.418067e-11 2.5212074e-10 1.3744315e-09 2.1096904e-09 1.082031e-09 1.849561e-11 3.5950418e-10
00000000: e114 e82e 5af1 b32c 15d9 9d2e 2523 c22e
00000010: 3a40 002f cb9f 162f a996 d62c d113 842e
00000020: e24c 8e2e 8265 dd2e fca1 a82e 88dd 8f2c
00000030: 01c5 892e 7a61 dc2e b857 112f 2111 f02e
00000040: 5971 be2c 9ea3 a62e 7ee7 5f2e 1d08 dc2e
00000050: 4d25 aa2e 22cf 882c 8187 892e 3f5b e62e
00000060: e401 1a2f 2632 ab2e 1c76 df2c 765d c82e
00000070: 26d4 bd2e ead0 0b2f 1b57 b92e bbbe 782c
00000080: e0fe 982e f4d7 152f c9cc 282f fc22 bc2e
00000090: 0003 f02c b1b6 bd2e 7b42 bc2e 15ee 0a2f
000000a0: 0817 c22e 9415 0c2c 8cb3 8f2e 1284 182f
000000b0: 4dd4 332f 3382 a32e 3218 0a2d 6698 ba2e
000000c0: e12e 032f 3b49 192f 9ab9 ca2e 410d c62b
000000d0: f708 922e 28a4 192f 932f 342f 56fb 8e2e
000000e0: 3b86 892c 2a63 a22e 009f 062f fc37 1e2f
000000f0: 6fcc b92e e83f 162c a788 852e 3cd1 242f
00000100: 7005 3a2f b340 ac2e 140d db2c ff54 472e
00000110: e4bf fd2e 4670 112f 5d29 b32e 27f0 9d2c
00000120: 7a0a 692e 813b 262f b784 402f b15f 9e2e
00000130: 3941 b52c fb62 602e 0795 eb2e 5490 122f
00000140: 5a5c c22e dec8 792c df6c 612e 2713 192f
00000150: 6b33 3d2f 2245 662e e776 2b2d e300 432e
00000160: e4ab c32e cdac 112f f1ef 9c2e 6f6f ec2b
00000170: 14aa 522e cba0 3d2f 3797 522f ac81 7b2e
00000180: ae55 e92c da16 342e 4d68 d92e 4d39 072f
00000190: 9b2c 8e2e ed96 682c 5b3a 3c2e 17e6 242f
000001a0: af01 442f 19a7 5c2e 1dd3 0d2d 6e2d 9e2d
000001b0: 1fb1 132f 1e9a 2c2f 7b90 892e aa3e d52c
000001c0: 9787 352e 76bd 212f ae4a 3e2f 1d0c 852e
000001d0: efee fa2c 8d46 c12d 404b 0a2f 6fa5 1d2f
000001e0: faab 522e 063c 3a2c 4da2 212e d521 0e2f
000001f0: 238e 2b2f f200 8a2e 7636 712c 6781 e02d
00000200: b392 052f 59b1 162f cce3 3c2e 6e8e 912b
00000210: 5686 002e b3b5 1c2f 655b 2a2f ef37 8e2e
00000220: c10a a92c 0938 d32d 6d4d 0d2f 8a64 292f
00000230: 1672 692e f30e 1a2c ddd6 ef2d b1b8 032f
00000240: eaf2 182f 0315 952e e65f 3d2c 81bc d02d
00000250: f49c 1a2f 8ac9 2e2f 0315 952e e65f 3d2c
00000260: 81bc d02d f49c 1a2f 8bc9 2e2f aaa5 c12b
00000270: 6ebf a72d bdd4 8f2d 6509 8735 807f 352e
00000280: 49e1 d62e 8e4d 932f af92 452d 285c 7b30
00000290: 41f9 d82d dc2f f62f db55 aa30 bd4b 0031
000002a0: 1f10 8830 af9e 162e b1eb fa2f 5d26 8430
000002b0: 2b73 0031 f357 8c30 c6b1 182e a47d f82f
000002c0: efc8 9830 77f7 0231 4459 9530 5f31 f82d
000002d0: 56fe cd2f bb72 9330 b966 f830 d88b 6f30
000002e0: 8d82 112e 56e2 e22f f085 b330 a6a6 1631
000002f0: 327f 9830 e1c7 e42d 9825 bb2f bf80 a030
00000300: 1940 fd30 48cc 5230 ade6 052e a367 cd2f
00000310: 6252 cc30 9c6a 1c31 2353 c530 84aa fa2d
00000320: f7c8 ad2f a698 a130 16b3 0631 8f22 7f30
00000330: 8db6 dd2d fbc6 be2f a089 d430 90cf 1c31
00000340: 2d27 8e30 e055 492d dc62 a82f c84b b730
00000350: b146 0831 432d 8830 9912 b82d 6cc3 d72f
00000360: 2ab2 b630 0828 1231 96ff a230 3601 142e
00000370: 664e 9c2f 3b49 b230 024d 1031 4a23 8e30
00000380: a719 f32d 849b d12f f413 e330 0b92 2131
00000390: a0ca a830 270f 152e c669 872f 4a26 c930
000003a0: e9dd 1331 b5ba 9b30 3e1c c32d c73a e92f
000003b0: 16bd eb30 3530 2c31 7bcd b730 50e2 872d
000003c0: c2ba 682f 93ad c330 5a17 1131 e534 7430
000003d0: 106b e12d 8a34 df2f e5aa 0631 ef5e 3f31
000003e0: 6d41 be30 07b2 d42d d79a 8a2f 82e6 bc30
000003f0: 11fa 1031 95b6 9430 69b0 a22d b7a3 c52f

exp_avg f4 [128]
-5.128636e-06 1.8924304e-05 1.044473e-06 -3.599218e-05 -3.203761e-05 -6.8960344e-06 -1.4505934e-05 -4.7535934e-05
2.1966429e-05 1.1217217e-05 -3.7230406e-05 3.0070723e-05 2.7958115e-05 -1.1009837e-05 7.2751423e-06 -2.1056594e-05
-7.51225e-06 -4.786622e-05 1.8559032e-05 1.5819924e-05 6.6547896e-06 -7.89521e-05 -1.5412143e-05 -7.705916e-05
-5.0492694e-05 -2.8519105e-05 1.7967697e-05 3.344879e-05 -2.1693399e-05 -4.810474e-06 2.994795e-05 -8.71655e-06
-4.9734787e-08 5.360158e-06 1.5509213e-06 7.4024283e-06 -6.109722e-05 1.3628064e-05 -3.123704e-05 -2.9771301e-05
-4.9974074e-05 1.898768e-05 8.373272e-06 1.8096016e-05 -5.4308108e-05 -1.7125814e-05 -9.7471995e-05 -2.7144699e-05
-1.4720616e-05 -1.57768e-05 2.2807175e-05 -3.5850182e-05 1.6057644e-05 1.1877128e-06 1.2050277e-05 -3.4080094e-05
1.6006883e-05 -3.2141354e-05 -1.8429218e-05 -9.958473e-05 -2.1957727e-05 -6.280452e-06 4.1501582e-05 6.586994e-06
-4.2726824e-06 1.3142948e-05 3.2014465e-05 9.863801e-06 2.4970772e-05 -5.1245825e-05 -8.809528e-06 6.276684e-05
-2.8396713e-05 6.1757487e-06 1.589005e-05 1.620549e-05 4.2560376e-05 -1.9891108e-06 -3.116925e-05 7.0004394e-06
5.2294577e-06 -0.000107505744 -1.7178525e-05 -5.2808566e-05 3.9724775e-05 1.6635106e-05 4.6568042e-05 -1.9421585e-05
5.0579754e-05 3.714556e-05 8.123229e-06 3.7117505e-05 -8.773234e-05 -3.469861e-05 -5.3271495e-05 -2.0177672e-06
-6.931489e-05 2.3626399e-06 2.6529206e-05 5.7691823e-06 -5.6854674e-08 1.37784e-06 2.0581432e-05 2.2497261e-05
3.866563e-05 2.2874945e-05 4.2264623e-05 1.1356946e-05 5.613139e-06 1.1958055e-06 1.6822472e-05 5.074718e-05
-4.5078894e-05 1.241421e-05 3.0251918e-05 -2.6824193e-05 5.8168498e-05 1.0807943e-05 1.1657001e-05 1.5326825e-05
-3.7272417e-05 1.0696836e-05 1.5594182e-05 -1.2149594e-05 -1.0764745e-05 5.58106e-06 1.7023674e-05 -7.616835e-05
00000000: a616 acb6 a2bf 9e37 d22f 8c35 4ff6 16b8
00000010: 1f60 06b8 7c64 e7b6 835e 73b7 5261 47b8
00000020: 8c44 b837 9531 3c37 d827 1cb8 6340 fc37
00000030: 9887 ea37 e4b6 38b7 ff1c f436 b1a2 b0b7
00000040: bc11 fcb6 f6c3 48b8 38af 9b37 07b5 8437
00000050: 354c df36 1693 a5b8 5349 81b7 d29a a1b8
00000060: 1ec8 53b8 503c efb7 56b9 9637 5d4b 0c38
00000070: 38fa b5b7 a869 a1b6 bc38 fb37 4c3d 12b7
00000080: fa9b 55b3 68db b336 4029 d035 6062 f836
00000090: 5221 80b8 17a4 6437 8404 03b8 62bd f9b7
000000a0: 419b 51b8 bb47 9f37 ee7a 0c37 e6cc 9737
000000b0: e3c8 63b8 68a9 8fb7 e169 ccb8 ccb4 e3b7
000000c0: 90f8 76b7 6c58 84b7 0952 bf37 d75d 16b8
000000d0: 87b3 8637 8069 9f35 8c2b 4a37 39f1 0eb8
000000e0: 8546 8637 84cf 06b8 7298 9ab7 25d8 d0b8
000000f0: dc31 b8b7 acbc d2b6 fc11 2e38 d905 dd36
00000100: 105e 8fb6 8880 5c37 4547 0638 b47c 2537
00000110: 5378 d137 c9f0 56b8 a2cc 13b7 b1a1 8338
00000120: 7a35 eeb7 4739 cf36 9f4b 8537 06f1 8737
00000130: db82 3238 aa7c 05b6 babb 02b8 51e5 ea36
00000140: b378 af36 b574 e1b8 9a1a 90b7 c47e 5db8
00000150: 279e 2638 9e8b 8b37 0e52 4338 89eb a2b7
00000160: 9925 5438 becc 1b38 0149 0837 9eae 1b38
00000170: f1fc b7b8 5989 11b8 d56f 5fb8 fa68 07b6
00000180: 265d 91b8 d88d 1e36 098b de37 e694 c136
00000190: 6030 74b3 39ee b835 4aa6 ac37 80b8 bc37
000001a0: e72c 2238 92e3 bf37 4b45 3138 b689 3e37
000001b0: 7f58 bc36 907f a035 fc1d 8d37 5fd9 5438
000001c0: 1813 3db8 a046 5037 80c5 fd37 8404 e1b7
000001d0: f3f9 7338 c353 3537 7092 4337 1b92 8037
000001e0: f454 1cb8 9076 3337 40d0 8237 1cd6 4bb7
000001f0: 3a9a 34b7 f144 bb36 10ce 8e37 92bc 9fb8

exp_avg_sq f4 [128]
2.7480995e-10 4.9272817e-09 1.3991953e-11 3.336613e-09 1.4113574e-09 1.8770667e-09 1.07310195e-10 5.873032e-09
2.513106e-09 1.9091712e-10 1.7318552e-09 2.4347637e-09 3.4675574e-10 2.5287747e-09 8.10189e-11 3.0138296e-09
1.363991e-09 3.7254853e-09 5.629379e-11 1.0400119e-10 1.581546e-10 1.1786645e-08 1.8002044e-09 6.6431047e-09
4.424741e-10 5.377814e-10 9.804372e-10 2.5499967e-09 3.7447485e-09 1.3671135e-09 3.3962264e-10 8.50734e-11
4.9304626e-11 8.8462716e-11 2.1064803e-09 7.114319e-11 1.1357242e-08 8.190435e-09 1.538937e-08 2.5708315e-09
3.6440586e-09 4.6119586e-10 1.6532505e-09 7.115772e-11 4.4278896e-09 1.5647876e-09 5.6450045e-09 2.1183109e-09
4.7478794e-09 1.9322621e-09 3.3031464e-09 2.7725473e-09 1.5225161e-10 7.6570625e-09 4.4073127e-09 2.4460232e-09
4.7454707e-09 5.3844396e-09 4.3320374e-09 4.5997917e-09 1.4761466e-10 4.5854887e-10 6.898098e-09 5.882321e-11
2.2910265e-09 1.1128645e-09 2.2167429e-10 2.668712e-10 7.004423e-09 1.2896406e-08 2.6684743e-09 2.557891e-09
8.410508e-09 8.7559446e-11 5.4083002e-11 7.1241006e-11 3.5488557e-09 1.6707177e-09 6.685921e-10 3.3369744e-11
5.994283e-11 1.9296271e-08 3.319014e-10 1.1851336e-08 6.473721e-09 3.3248682e-09 8.366121e-09 2.124749e-09
6.8199855e-09 2.0587998e-09 5.4352415e-11 2.0144875e-09 5.9683973e-09 6.933563e-10 5.565221e-09 5.9019616e-09
3.449224e-09 6.116371e-09 5.1049676e-10 8.172458e-11 3.0163694e-11 2.8460932e-11 2.2062066e-10 2.5774385e-09
5.144197e-09 4.1853707e-09 4.3955373e-09 5.166433e-11 4.877311e-11 4.9012128e-11 6.425527e-10 3.895393e-09
3.1391114e-09 2.426054e-09 2.4088787e-09 2.0968849e-09 6.898418e-09 1.4208674e-11 6.882798e-11 1.518242e-10
1.268315e-09 7.3042603e-09 8.469669e-11 3.0957437e-10 3.1873724e-09 4.0184037e-10 5.06952e-11 5.4773186e-09
00000000: 1014 972f d44c a931 2826 762d 514a 6531
00000010: b9f9 c130 b5fd 0031 45fa eb2e bccb c931
00000020: 07b3 2c31 64ea 512f 3d06 ee30 d150 2731
00000030: 88a1 be2f adc6 2d31 9629 b22e da1b 4f31
00000040: 2b77 bb30 b701 8031 2c95 772e 77b3 e42e
00000050: 90e4 2d2f 377e 4a32 106b f730 5e41 e431
00000060: b240 f32f 00d3 1330 11c0 8630 043c 2f31
00000070: 28ab 8031 08e5 bb30 a3b5 ba2f 1114 bb2e
00000080: 13d8 582e 1588 c22e 98c1 1031 0e72 9c2e
00000090: ae1d 4332 eab5 0c32 9531 8432 8caa 3031
000000a0: f56a 7a31 8c8b fd2f 9538 e330 3c7a 9c2e
000000b0: 2124 9831 1210 d730 fcf5 c131 b891 1131
000000c0: ca22 a331 b7c8 0431 91fd 6231 2b87 3e31
000000d0: 0567 272f 1e8c 0332 226f 9731 e516 2831
000000e0: 9a0d a331 0802 b931 01d9 9431 320c 9e31
000000f0: d54d 222f 0417 fc2f 5004 ed31 865a 812e
00000100: 2a70 1d31 70f3 9830 c4bb 732f c8b6 922f
00000110: 8eab f031 fe8e 5d32 4c60 3731 e5c6 2f31
00000120: ce7d 1032 968b c02e 0cdc 6d2e 1fa9 9c2e
00000130: 21e0 7331 279f e530 fdc7 3730 fec2 122e
00000140: d0d0 832e f3c0 a532 f876 b62f ba9a 4b32
00000150: 746f de31 b37b 6431 97ba 0f32 fb02 1231
00000160: 3a55 ea31 ca7a 0d31 610b 6f2e 3d6f 0a31
00000170: 9412 cd31 9d96 3e30 3438 bf31 34ca ca31
00000180: 6407 6d31 2b28 d231 0453 0c30 d9b6 b32e
00000190: 4da9 042e 5258 fa2d 3293 722f c71e 3131
000001a0: d6c0 b031 e9ce 8f31 8e07 9731 dd38 632e
000001b0: a481 562e c08e 572e a09f 3030 3dd8 8531
000001c0: d5b7 5731 98b7 2631 7189 2531 ca18 1031
000001d0: 2007 ed31 2ef6 792d b55a 972e b7ee 262f
000001e0: de50 ae30 f4f8 fa31 ff3f ba2e b830 aa2f
000001f0: d908 5b31 01ea dc2f b9f5 5e2e 0133 bc31
